models/rnn_model_31_ynhfblre.pkl (torch, 501204 bytes, 18 tensors)

weight_ih_l0 f4 [128, 50]
0	0xbd11978e	-0.035544924
1	0xbd095eb8	-0.033537596
2	0xbce490c5	-0.027901063
3	0xbc18888d	-0.0093099
4	0xbdb5f37b	-0.08884331
5	0x3d622480	0.05521059
6	0x3d01bef2	0.03167624
7	0x3cc58842	0.024112824
8	0x3dc4032d	0.09570918
9	0xbb7af89c	-0.0038295155
10	0x3da85388	0.08219057
11	0xbd3311ad	-0.04371803
12	0xbd97000d	-0.073730566
13	0xbda4cd37	-0.08046954
14	0xbc176720	-0.0092408955
15	0x3c3f7b5d	0.011687127
16	0x3d878b7f	0.06618404
17	0xbd58bbf9	-0.05291364
18	0x3dadc591	0.084849484
19	0x3d5b0cc5	0.053478975
20	0x3d2bfe79	0.04199073
21	0x3d741cc1	0.059597734
22	0x3d371a04	0.044702545
23	0xbb9e820e	-0.004837281
24	0xbda1686a	-0.078812435
25	0xbb017927	-0.001975605
26	0xbd44ca19	-0.048044298
27	0xbd5e00e8	-0.054200083
28	0x3ca87367	0.02056284
29	0xbdbfc235	-0.09363214
30	0xbc87c4b5	-0.01657329
31	0xbd6b9d24	-0.057522908
32	0xbd81d51e	-0.06339477
33	0xbd6fae9f	-0.05851614
34	0x3c12189c	0.008917
35	0x3c8d6579	0.0172603
36	0xbd32d103	-0.04365636
37	0x3d816393	0.063178204
38	0xbbf1605a	-0.0073662223
39	0xbbaf535a	-0.0053505125
40	0xbd86e80c	-0.06587228
41	0x3c854c35	0.01627169
42	0x3c83e137	0.016098602
43	0xbcb47bc9	-0.022031682
44	0xbb13d7d9	-0.0022559075
45	0x3d5721db	0.05252252
46	0x3d8e50ee	0.0694903
47	0xbded59c3	-0.11589386
48	0x3d3efc89	0.046627555
49	0xbdb369b1	-0.087603934
50	0x3c7a235f	0.015267222
51	0x3c902baa	0.017598946
52	0x3d737ff8	0.059448212
53	0xbc623620	-0.01380685
54	0x3b96abf5	0.0045981356
55	0xbc0c54c2	-0.00856513
56	0x3ca612ed	0.020272696
57	0xbaa06df0	-0.0012239795
58	0x3d851008	0.06497198
59	0x3c8a5d67	0.01689024
60	0x3d165536	0.036702357
61	0x3cb6e94c	0.022328041
62	0xbac120cf	-0.0014734509
63	0xbd512d6b	-0.051068705
64	0xbcf76e7f	-0.030204056
65	0xbd87e939	-0.066362806
66	0x3d36070c	0.044440314
67	0xbd239f07	-0.039946582
68	0xbd1b313e	-0.037888758
69	0x3d30c0dd	0.04315268
70	0x3c89dc4c	0.016828679
71	0x3c9fc72a	0.019504149
72	0x3d9f6c79	0.077843614
73	0xbc5d8b8a	-0.013522038
74	0x3d5ecfca	0.05439738
75	0x3dd407d8	0.103530586
76	0x3d2c062d	0.041998077
77	0x3da99a9b	0.08281442
78	0xbc89c123	-0.016815728
79	0x3cf48554	0.029848732
80	0x3dc36032	0.09539832
81	0xbc866285	-0.0164044
82	0x3da40a13	0.08009734
83	0xbd993584	-0.074809104
84	0xbd5d3603	-0.054006588
85	0x3cc3352a	0.023829062
86	0x3da5dc94	0.080987126
87	0x3d1fbafc	0.03899668
88	0xbd86069c	-0.065442294
89	0xbd4bc546	-0.04974868
90	0xbb6a8b3a	-0.0035788552
91	0xbdab7b1f	-0.08373093
92	0xbd2e8626	-0.042608403
93	0xbda9b90e	-0.082872495
94	0x3caf1687	0.021373047
95	0xbcb7aa63	-0.022420114
96	0x3d423179	0.047410462
97	0xbd5ebb94	-0.054378107
98	0x3cd7b784	0.026332624
99	0xbd4a4fdd	-0.04939257
100	0x3d5588c1	0.05213237
101	0x3da55c9b	0.08074304
102	0xbda9ff16	-0.08300607
103	0x3d9bda23	0.07609966
104	0xbcdf0baa	-0.027227242
105	0xbd1ea95e	-0.03873574
106	0x3bdad6a4	0.006678419
107	0xbc682aec	-0.01417039
108	0xbdaec146	-0.08532958
109	0x3cef2c55	0.029195944
110	0xbcbeb110	-0.02327779
111	0xbdb1f22b	-0.08688768
112	0xbbeec55c	-0.0072867107
113	0x3d513538	0.051076144
114	0xbd271f9c	-0.04080163
115	0xbc1630b3	-0.009166884
116	0xbd9bec04	-0.07613376
117	0xbd0e31da	-0.03471551
118	0xbc25fde3	-0.010131332
119	0x3d326cbc	0.04356073
120	0xbbdfec2f	-0.006833575
121	0x3da3b07f	0.07992648
122	0x3d88846b	0.06665882
123	0xbc18264b	-0.0092864735
124	0x3d4a67a1	0.049415234
125	0xbc1b72db	-0.009487833
126	0x3c85fcc9	0.016355889
127	0x3cf324f4	0.029680707
128	0x3d8c0dac	0.06838545
129	0xbd5990b1	-0.053116504
130	0x3d8ba075	0.06817714
131	0xbd7252e6	-0.05916109
132	0x3cf4c3b9	0.029878484
133	0xbd1c8731	-0.038214866
134	0x3d404892	0.04694421
135	0x3d5f6574	0.054540113
136	0x3d0c679f	0.03427851
137	0xbd70f5c5	-0.058828134
138	0xbc90fdab	-0.017699083
139	0x3d80c86f	0.0628823
140	0xbc8f8e46	-0.017523896
141	0xbd819f0b	-0.06329163
142	0xbdc1d282	-0.09463979
143	0x3cf646b2	0.030063007
144	0xbdc2e4e0	-0.09516311
145	0x3d217bda	0.039424755
146	0xbd92af14	-0.071623
147	0xbb170faa	-0.0023050108
148	0x3bf05768	0.0073346384
149	0x3db7aa11	0.089679845
150	0x3dcc145a	0.09964819
151	0xbd203d21	-0.039120797
152	0xbd232ee1	-0.03983963
153	0x3bdc892f	0.0067302207
154	0xbcbf720e	-0.023369815
155	0x3d4aec25	0.04954161
156	0x3c81c562	0.01584119
157	0x3da03e86	0.078244254
158	0xbd0dee62	-0.034651168
159	0xbd309f00	-0.043120384
160	0x3c93b678	0.018031344
161	0xbcde226e	-0.027116027
162	0x3d091532	0.03346748
163	0xbda03808	-0.07823187
164	0x3b5d5faa	0.0033778944
165	0xbde29f14	-0.11065498
166	0xbd0ca0fc	-0.034333214
167	0xbd9a959f	-0.07548069
168	0xbba7fad9	-0.005126339
169	0x3b002f20	0.0019559339
170	0xbdd078fc	-0.10179326
171	0x3c16cbb5	0.009203841
172	0xbb64b1fa	-0.0034896121
173	0x3cc61771	0.0241811
174	0xbd4177ac	-0.04723327
175	0xbdc9e709	-0.098585196
176	0xbd7cb7b1	-0.06169862
177	0x3c296855	0.010339816
178	0x3d67e478	0.05661437
179	0x3d76be39	0.060240004
180	0xbd4a468c	-0.049383685
181	0x3d892791	0.06697
182	0xbc23bb92	-0.009993451
183	0x3d14dd71	0.036343995
184	0xbd886516	-0.066599056
185	0x3cdad42d	0.026712501
186	0x3c0101da	0.007873977
187	0x3d5a6c6e	0.053326063
188	0xbd8a5602	-0.06754686
189	0xbd480b8e	-0.048839144
190	0x3d5ae851	0.05344421
191	0x3d40ea84	0.04709865
192	0xbbde9aec	-0.0067933705
193	0x3ca59def	0.02021691
194	0x3dc4c523	0.09607913
195	0xbda5a368	-0.08087808
196	0x3da10547	0.07862335
197	0x3bba1f27	0.005679983
198	0x3d85f0e1	0.06540085
199	0xbd25117f	-0.04029989
200	0x3d87ae95	0.06625096
201	0x3da3a022	0.07989527
202	0x3d115614	0.03548248
203	0xbd60a7bd	-0.054847468
204	0xbd500bf2	-0.050792642
205	0x3d6451d5	0.055742104
206	0xbd12fade	-0.035883777
207	0xbd61d3c7	-0.055133607
208	0xbd6789f7	-0.056528058
209	0x3cf70699	0.030154513
210	0x3c28dae4	0.010306094
211	0xbd8e3698	-0.06944007
212	0x3d133852	0.035942383
213	0x3bf1f5c4	0.007384034
214	0x3b541f0f	0.0032367145
215	0x3b20d323	0.002453991
216	0x3d65d8e9	0.056115065
217	0xbd5e68b1	-0.05429906
218	0xbd2f08d5	-0.042733032
219	0xbd89370e	-0.06699954
220	0x3d6ddfcd	0.05807476
221	0x3d7616e8	0.06008044
222	0xbd52ce13	-0.05146606
223	0x3dad7f1d	0.084715106
224	0xbc98663e	-0.01860344
225	0x3d7b9dcd	0.061429787
226	0x3cd4defc	0.025985233
227	0xbcca5bfb	-0.024702063
228	0x3dab359a	0.08359833
229	0x3c21cbe5	0.009875272
230	0x3d465311	0.048419062
231	0xbb324437	-0.0027201304
232	0xbc51a2ce	-0.012795163
233	0x3d97dbc5	0.074149646
234	0x3cf6bebc	0.030120246
235	0xbc229606	-0.009923464
236	0x3d675240	0.056474924
237	0x3cc613df	0.024179397
238	0x3d46b063	0.04850806
239	0x3c88ee83	0.016715294
240	0x3c76d0fd	0.015064475
241	0xbd4c0102	-0.04980565
242	0x3b141d4d	0.0022600472
243	0xbd8223cc	-0.06354484
244	0xbce369b3	-0.027760362
245	0xbd8aa283	-0.06769278
246	0xbd34bd79	-0.044126008
247	0xbc8ab0e9	-0.01693006
248	0x3c90f078	0.01769279
249	0xbc8020c1	-0.015640618
250	0x3d8c9c62	0.06865765
251	0xbd884d00	-0.066553116
252	0x3d344d17	0.04401883
253	0xbd2c4315	-0.042056162
254	0x3d462bff	0.0483818
255	0xbd20cde5	-0.039258856

weight_hh_l0 f4 [128, 128]
0	0x3c3427f5	0.010995855
1	0xbd02eebf	-0.031965967
2	0x3bfa1477	0.007631834
3	0xbd0e75d8	-0.034780353
4	0x3c0bd61c	0.008534934
5	0x3c83d7e1	0.01609415
6	0xbd0bd447	-0.03413799
7	0xbc0995e2	-0.008397551
8	0xbdc0b9a9	-0.09410412
9	0xbd8fba3c	-0.07017943
10	0x3d4d753a	0.050160624
11	0x3d98e721	0.07465959
12	0xbd0b9857	-0.03408083
13	0x3d3b0ff2	0.045669504
14	0xbd789565	-0.06068935
15	0xbbe92a86	-0.007115665
16	0x3d5d5a3b	0.05404113
17	0xbd490749	-0.049079213
18	0x3c9adcba	0.018904079
19	0x3cc1c97e	0.02365565
20	0xbcac1eec	-0.021010838
21	0xbbf306c4	-0.007416578
22	0x3d83c11a	0.064333156
23	0xbd951eac	-0.07281241
24	0x3d26f54f	0.04076129
25	0xbcdf9eed	-0.027297461
26	0x3d5e8747	0.05432823
27	0x3d8e35d8	0.06943864
28	0xbd451e16	-0.048124395
29	0x3d84f3af	0.064917915
30	0x3d90e77b	0.070754014
31	0x3cf94a01	0.030430796
32	0xbbb97093	-0.005659172
33	0xbcbc5fc3	-0.022994881
34	0x3d56c7c4	0.052436605
35	0x3cf5e3d1	0.030015858
36	0x3d28a05b	0.041168552
37	0xbd094314	-0.033511236
38	0x3d207e61	0.039183024
39	0x3dba562c	0.09098467
40	0xbcb5a73d	-0.022174472
41	0xbbebc44c	-0.0071950313
42	0xbc5b53df	-0.013386696
43	0xbdaf3369	-0.085547276
44	0x3c43d67a	0.011952991
45	0xbc7536c5	-0.014966671
46	0x3cbf4963	0.023350423
47	0xbd7547cb	-0.05988292
48	0x3d5796ec	0.052634165
49	0xbd20e8ef	-0.039284643
50	0x3dc4f3f6	0.09616844
51	0xbdf0d5aa	-0.11759503
52	0xbd63f6a3	-0.055655133
53	0x3d5f5732	0.054526515
54	0xbd67cd5a	-0.056592323
55	0xbd963eed	-0.07336221
56	0xbd610df8	-0.054944962
57	0x3d3b53c9	0.0457342
58	0x3d75b584	0.05998756
59	0x3c929668	0.017893985
60	0xbd71075c	-0.05884491
61	0xbd56f666	-0.052481078
62	0x3d31d2f9	0.04341409
63	0x3d51d3e0	0.05122745
64	0xbc121a22	-0.008917363
65	0xbb165c66	-0.0022943257
66	0x3c08d784	0.008352164
67	0xbd571c8b	-0.052517455
68	0x3d1c6713	0.038184237
69	0xbcb1b9fc	-0.02169513
70	0xbcc9f29f	-0.024651824
71	0x3c2c802c	0.010528605
72	0xbd84c809	-0.06483466
73	0x3d9a0a5a	0.07521506
74	0x3da1d19c	0.07901308
75	0x3d97459b	0.07386323
76	0x3d885ad0	0.06657946
77	0x3d99cc13	0.07509627
78	0x3d9dec92	0.07711138
79	0x3d9c8ab2	0.076436415
80	0x3d9fef60	0.07809329
81	0x3d7c2dd5	0.061567146
82	0xbd2cb692	-0.0421663
83	0xbd71b01c	-0.05900584
84	0xbc9961eb	-0.018723449
85	0x3d174bea	0.03693763
86	0x3dafcae1	0.08583618
87	0x3d9290db	0.07156535
88	0x3d66f433	0.05638523
89	0xbd8343e0	-0.064094305
90	0x3d88e425	0.0668414
91	0xbd9803c1	-0.07422591
92	0xbd23ce8c	-0.0399919
93	0x3d9dd34f	0.077063195
94	0xbd1ba442	-0.037998445
95	0x3d7a0d98	0.06104812
96	0xbb17300e	-0.0023069414
97	0xbc3c0d01	-0.01147771
98	0x3d3ed272	0.046587415
99	0xbda228f5	-0.07917968
100	0xbd056d2a	-0.03257481
101	0x3cc40433	0.023927784
102	0xbd72a597	-0.05923995
103	0x3b8f2cab	0.0043693385
104	0xbca5bc6a	-0.020231444
105	0x3ceacc50	0.028661877
106	0x3db55bf9	0.08855433
107	0x3c945b33	0.018109893
108	0x3cb3f94f	0.021969466
109	0xbc72e61e	-0.014825372
110	0x3c6cb94d	0.014448476
111	0x3dac6cdb	0.084192
112	0x3aa71e14	0.0012750053
113	0xbd66ec4e	-0.0563777
114	0x3d9d20d2	0.076722756
115	0x3d49367e	0.049124233
116	0xbd8871f3	-0.06662359
117	0xbd479dcf	-0.048734482
118	0xbc923baa	-0.017850716
119	0x3d46d6ab	0.048544567
120	0xbd62e99c	-0.05539857
121	0x3d1da836	0.038490497
122	0x3d401fae	0.046905212
123	0xbcf91f08	-0.030410305
124	0xbc725f98	-0.014793299
125	0x3d9237f0	0.071395755
126	0xbd803b75	-0.062613405
127	0x3d13a499	0.036045644
128	0xbc528b86	-0.012850648
129	0x3d0a6075	0.033783395
130	0x3d269ef5	0.040678937
131	0xbaf1f3da	-0.0018459514
132	0x3cad699e	0.021168526
133	0x3d1c5b68	0.03817311
134	0x3d305e75	0.04305883
135	0xbbcfae50	-0.0063379183
136	0xbd88e259	-0.066837974
137	0xbd87d9e7	-0.066333584
138	0xbd3ab94b	-0.045586865
139	0x3d13f3fc	0.036121354
140	0xbd7a347a	-0.0610852
141	0xbd4c6c7e	-0.049908154
142	0x3d43a892	0.047768183
143	0xbbe5baaa	-0.0070107775
144	0xbd68a363	-0.056796443
145	0x3da59a3f	0.08086061
146	0x3d843e0f	0.06457149
147	0xbda2ec10	-0.079551816
148	0xbd8c708c	-0.06857404
149	0x38dbe708	0.00010485767
150	0x3d4dbf93	0.050231528
151	0x3d76ba56	0.060236298
152	0xbd37b27a	-0.044847943
153	0x3d38efc5	0.045150537
154	0x3d91fb60	0.07128024
155	0xbd77fa9b	-0.06054173
156	0xbdbcf77d	-0.09226892
157	0x3c98ac4f	0.01863685
158	0xbcf7c172	-0.03024361
159	0xbd4e4815	-0.05036171
160	0x3d3e5656	0.046469055
161	0xbcf45bfc	-0.029829018
162	0xbaf6a8cd	-0.0018818617
163	0x3d056114	0.032563284
164	0xbca062a6	-0.01957829
165	0x3da70b54	0.081564575
166	0x3ce96684	0.028491266
167	0x3d71bd62	0.0590185
168	0x3dd2cc06	0.10292821
169	0xbd89ee34	-0.06734887
170	0xbd6587e0	-0.056037784
171	0x3da07516	0.07834832
172	0xba48e28a	-0.00076631515
173	0x3ca2fdfb	0.019896498
174	0x3c920ad3	0.017827427
175	0xbd6a1f2e	-0.05715864
176	0x392432f7	0.00015659245
177	0x3a9fa218	0.0012179045
178	0xbd3f9d10	-0.046780646
179	0xbd2b69f1	-0.04184908
180	0x3d8954e8	0.06705648
181	0x3ab633ad	0.0013900899
182	0x3b33163a	0.002732648
183	0xbda0fe47	-0.078609996
184	0xbd4301e0	-0.04760921
185	0x3d243adb	0.04009519
186	0x3c9b6d39	0.01897298
187	0xbcf62bd6	-0.0300502
188	0x3d80cd38	0.06289142
189	0x3953724e	0.0002016511
190	0xbd9bf106	-0.07614331
191	0x3cab65b5	0.020922521
192	0x3c94ec45	0.018179068
193	0x3da6181d	0.08110068
194	0xbd222edd	-0.039595474
195	0x3d6850dd	0.056717742
196	0x3db44ace	0.0880333
197	0xbd5484c3	-0.051884424
198	0x3d2d6378	0.04233119
199	0x3aaded62	0.0013269598
200	0x3d75d9f8	0.060022324
201	0x3d7e7882	0.062126644
202	0xbd5711b7	-0.05250713
203	0xbd8c92bf	-0.06863927
204	0x3d804368	0.06262857
205	0xbdc2b7de	-0.09507726
206	0x3d5563fb	0.052097302
207	0x3d8118d5	0.063035645
208	0x3d6f0858	0.058357567
209	0x3d500337	0.050784316
210	0xbcd62afc	-0.026143543
211	0x3d44a4e8	0.04800883
212	0xbd7906b4	-0.06079741
213	0x3ce64df5	0.028113345
214	0xbc385039	-0.011249595
215	0xbd2ad557	-0.041707363
216	0x3d0de9cd	0.034646798
217	0x3d88d22e	0.066807136
218	0xbb72fcb9	-0.0037076904
219	0x3d9f231a	0.07770367
220	0x3b905c42	0.0044055292
221	0xbc332750	-0.010934666
222	0xbcaeb42b	-0.021326145
223	0x3dacd505	0.08439068
224	0x3d407ace	0.046992116
225	0xbb6b366c	-0.0035890592
226	0x3d48253a	0.048863627
227	0x3d13490d	0.03595834
228	0xbd5c05bd	-0.05371641
229	0xbd34ca60	-0.044138312
230	0x3d409488	0.04701665
231	0xbccb6c10	-0.024831802
232	0xbdd3d3b9	-0.10343117
233	0xbd9edd24	-0.07757023
234	0x3cad8f04	0.02118636
235	0x3c0be234	0.008537818
236	0xbc841e37	-0.016127689
237	0x3d8f8177	0.07007115
238	0xbbc3e5c1	-0.0059783165
239	0xbd85167b	-0.064984284
240	0xbd2d5eec	-0.042326853
241	0xbdb778f5	-0.089586176
242	0x3b9e46ac	0.004830202
243	0x3d6ecaeb	0.058298986
244	0x3d9cdad6	0.07658927
245	0xbd970e1e	-0.073757395
246	0xbd4b04b7	-0.049565043
247	0xbd975af9	-0.073903985
248	0xbb2a5083	-0.002598793
249	0x3cea9f4f	0.028640417
250	0x3d662c24	0.05619444
251	0xbd98b0b0	-0.074555755
252	0xbd0f33f5	-0.03496166
253	0x3d99712c	0.07492289
254	0x3d56e866	0.052467726
255	0x3d25ffc6	0.040527128

bias_ih_l0 f4 [128]
0	0x3daf4fba	0.085601285
1	0xbda06e8f	-0.078335874
2	0xbd573129	-0.052537117
3	0x3dccf33f	0.10007333
4	0xbcdc94c1	-0.0269264
5	0x3ae8e6f5	0.0017769026
6	0x3d58d75b	0.052939754
7	0xbcfb2b10	-0.030660182
8	0x3ce1e117	0.027573152
9	0x3c8e01fa	0.017334927
10	0x3d3cde4c	0.046110436
11	0x3c83f9ac	0.016110264
12	0x3d0fbf8d	0.035094786
13	0x3c6be0e2	0.014396878
14	0x3da0fcb8	0.07860702
15	0x3b3f6b6b	0.0029208313
16	0x3d0d8b3a	0.034556605
17	0xbd7ef009	-0.062240634
18	0x3d83d35e	0.064367995
19	0x3d82a62d	0.06379352
20	0x3dc977a1	0.098372705
21	0xba447ea8	-0.000749568
22	0x3caf8001	0.021423342
23	0x3cc3075e	0.023807224
24	0x3c1fbdea	0.009749869
25	0xbd2b5413	-0.041828226
26	0x3d9dcd68	0.07705194
27	0x3d3d3c1b	0.0461999
28	0x3d384a03	0.044992458
29	0xbb571aa0	-0.0032822266
30	0x3d8cd77a	0.068770364
31	0x3d980916	0.07423608
32	0xbb96a828	-0.0045976825
33	0xbd6fe12e	-0.058564357
34	0x3dc7f4f7	0.0976352
35	0xbd7a65e2	-0.06113232
36	0xbc805966	-0.015667628
37	0xbd20e8e7	-0.039284613
38	0x3d71ca4f	0.059030827
39	0xbc165e61	-0.009177775
40	0xbd81cb48	-0.06337601
41	0xbd2111bb	-0.03932355
42	0xbd84d715	-0.06486336
43	0x3d391173	0.045182656
44	0xbd39eb3d	-0.045390356
45	0x3d0e2e7f	0.03471231
46	0xbbb94be5	-0.0056547993
47	0x3cedc74d	0.029025698
48	0x3d5bb5b4	0.053640082
49	0x3d9b41fb	0.07580944
50	0xbdb4c9be	-0.08827542
51	0xbdaa7543	-0.08323147
52	0xbd756998	-0.059915155
53	0xbc2bedf0	-0.01049374
54	0x3c1001e6	0.008789515
55	0xbd309f0e	-0.043120436
56	0xbdd3f6e6	-0.103498265
57	0xbde74997	-0.11293333
58	0x3bc39767	0.0059689763
59	0x3d40cbf4	0.047069505
60	0xbd5e1f49	-0.054229055
61	0xbd989c70	-0.07451713
62	0xbdcb0933	-0.09913864
63	0xbd8ab5cd	-0.06772957
64	0x3cb39b59	0.021924661
65	0xbd8be8c6	-0.068315074
66	0xbd9d93e2	-0.07694222
67	0x3cab629d	0.020921046
68	0x3d329a99	0.043604467
69	0x3d855c33	0.06511726
70	0x3c270f44	0.010196511
71	0x3d7f3721	0.062308434
72	0xbd85274f	-0.06501638
73	0x3c6e5337	0.014546207
74	0x3d74318f	0.059617575
75	0x3d1edee7	0.038786795
76	0x3da785c8	0.081798136
77	0x3bb469a6	0.0055057583
78	0x3d8c94f4	0.06864348
79	0x3d99fb92	0.07518686
80	0x3cd71fa6	0.026260208
81	0xbd57f858	-0.052727073
82	0xbd82d84d	-0.06388912
83	0xbd51a5f8	-0.05118367
84	0xbdcc4c19	-0.09975452
85	0x3d41b978	0.047296017
86	0x3db56d1f	0.08858704
87	0xbdac7b11	-0.084219106
88	0xbdd0e0ba	-0.10199113
89	0xbd8db602	-0.06919481
90	0x3d776831	0.0604021
91	0xbda3d9bc	-0.08000514
92	0xbdb8ee99	-0.09029884
93	0x3da4b5d3	0.08042493
94	0x3d8bdf88	0.068297446
95	0x3dcebdd0	0.100947976
96	0xbd2fd1d9	-0.042924736
97	0xbd5644bd	-0.052311648
98	0xbd6f3cc8	-0.058407575
99	0xbdab8c54	-0.08376375
100	0x3c541669	0.012944796
101	0x3dddaa83	0.10823538
102	0x3d2d558e	0.04231792
103	0x3d010aa7	0.0315043
104	0xbbc5a5bf	-0.0060317214
105	0x3da4b1d5	0.08041731
106	0x3d8c7a9a	0.06859322
107	0x39cced91	0.00039086913
108	0xbdd4ebfe	-0.103965744
109	0x3cf19a64	0.029492564
110	0x3c971bd7	0.018445892
111	0x3cfa69d5	0.030568043
112	0xbdb35899	-0.08757133
113	0x3d5fb068	0.054611593
114	0x3ca6daa4	0.020367928
115	0x3db16c0f	0.08663189
116	0x3d97dfe4	0.074157506
117	0xbd89d584	-0.06730178
118	0xbb976d18	-0.0046211593
119	0xbd65428f	-0.05597168
120	0xbd5e99e9	-0.054346
121	0xbd1204ff	-0.035649296
122	0x3cb98777	0.022647602
123	0x3cb6e475	0.022325734
124	0xbc2ef28a	-0.010677943
125	0xbb5359cd	-0.003224957
126	0x3c58bfc8	0.013229318
127	0xbc8fa5fa	-0.017535198

bias_hh_l0 f4 [128]
0	0x3d43a6e9	0.0477666
1	0xbd6710d1	-0.05641252
2	0x3d883429	0.06650574
3	0x3dc64459	0.09681005
4	0x3be0047c	0.006836472
5	0xbd50d1a4	-0.05098118
6	0x3d938544	0.07203153
7	0x3d6d1120	0.05787766
8	0xbd9ae93e	-0.07564019
9	0xbcb6ffd0	-0.022338778
10	0xbdbe2ddc	-0.09286091
11	0x3dc16e92	0.09444918
12	0x3d78f4f2	0.060780473
13	0x3cc54e61	0.024085226
14	0x3dddbd7a	0.108271554
15	0x3d806a8d	0.06270323
16	0xbd17d8a2	-0.03707183
17	0xbd952e25	-0.07284192
18	0xbd1bd678	-0.03804633
19	0x3da34fbd	0.07974193
20	0xbd764273	-0.060121965
21	0xbcbd9a09	-0.023144739
22	0x3dc0b6f7	0.09409898
23	0x3d074816	0.03302773
24	0xbd1d1bca	-0.03835658
25	0x3d899261	0.06717373
26	0x3da5460c	0.08070001
27	0x3d8b3d96	0.06798856
28	0xbc7b4770	-0.015336856
29	0x3cd9024b	0.026490351
30	0x3d85254e	0.06501256
31	0x3c5115aa	0.012761513
32	0x3d9b2848	0.075760424
33	0xbd14ecc6	-0.036358617
34	0x3da5015c	0.080569
35	0xbdd3df6c	-0.10345349
36	0x3dbe4583	0.09290602
37	0xbdaa7791	-0.08323587
38	0xbceda9fa	-0.029011715
39	0x3db497cb	0.08818015
40	0x3d22952b	0.03969304
41	0x3d147fe2	0.03625477
42	0x3d79f2cd	0.06102257
43	0x3cfc9594	0.030833043
44	0x3c992dcd	0.018698597
45	0xbd6eaa7e	-0.058268063
46	0x3c2fbcbc	0.01072615
47	0x3d83e3e0	0.06439948
48	0x3d9b2a24	0.07576397
49	0xbd1769af	-0.036966022
50	0xbd317d06	-0.043332122
51	0xbd202733	-0.039099883
52	0xbd8972fe	-0.06711386
53	0x3cf1f7d6	0.029537123
54	0xbc4deb7c	-0.012568351
55	0xbd1aca0b	-0.03779034
56	0xbda18755	-0.07887141
57	0xbbab83b9	-0.0052342084
58	0x3d2e73dc	0.04259096
59	0x3d29bc76	0.041439496
60	0x3d42e7a4	0.04758419
61	0xbcad4432	-0.021150682
62	0xbd81a58c	-0.06330404
63	0xbc9cfcd7	-0.019163532
64	0x3d7d46fa	0.061835267
65	0xbd0fb958	-0.035088867
66	0xbcf7d471	-0.030252667
67	0xbb57cfb9	-0.0032930209
68	0x3d6880ca	0.056763448
69	0x3bd3c420	0.006462589
70	0x3c87b142	0.016564015
71	0xbc53198e	-0.012884511
72	0xbdd4c7c5	-0.103896655
73	0xbd0cbe44	-0.03436114
74	0xbd229fd9	-0.039703224
75	0x3d58f0e3	0.052964102
76	0xbaebe569	-0.0017997447
77	0x3dcefe65	0.10107116
78	0x3da85b43	0.08220532
79	0x3da4667b	0.08027359
80	0x3d826abc	0.06368014
81	0x3d2b4167	0.04181042
82	0xbd3296f7	-0.043601003
83	0x3d5697bb	0.052390795
84	0x3c0e85c6	0.008698886
85	0x3b2f2fcc	0.002673137
86	0x3da1f9b0	0.07908952
87	0x3d0831d6	0.033250652
88	0xbd31be47	-0.043394353
89	0x3b1e1bdb	0.002412549
90	0x3c75daf0	0.015005812
91	0xbbad8cd8	-0.005296331
92	0xbbdc1cf6	-0.0067173196
93	0x3d81baa2	0.063344255
94	0xbd7103d3	-0.058841538
95	0x3da6ea34	0.081501395
96	0xbdcdde57	-0.100521736
97	0x3dd58fd7	0.10427826
98	0xbd8c102e	-0.068390235
99	0xbd648c63	-0.055797946
100	0x3c733323	0.014843735
101	0xbc17a2be	-0.009255109
102	0x3d3341c6	0.0437639
103	0x3db1a83a	0.08674665
104	0x3dd8199f	0.10551762
105	0xbd5008b4	-0.05078955
106	0x3dba972c	0.09110865
107	0x3d07be23	0.033140313
108	0xbd2fe051	-0.042938534
109	0x3d21e86f	0.039528307
110	0x3d04f224	0.032457486
111	0xbd98b85b	-0.07457038
112	0xbdc82db3	-0.097743414
113	0x3d5e1f87	0.054229286
114	0xbc6278e2	-0.013822766
115	0x3d114f78	0.035476178
116	0xbb9bdd68	-0.0047566183
117	0x3c998f42	0.018745068
118	0x3d531b9c	0.051540002
119	0x3d27c479	0.040958855
120	0x3d5f14ed	0.054463316
121	0xbcae1948	-0.02125229
122	0xbcbdd6fa	-0.023173798
123	0x3d9b51c4	0.07583955
124	0xbcecce78	-0.028907046
125	0x3dd304e1	0.10303665
126	0x3bee2f1d	0.0072688
127	0xbc7f788c	-0.015592705

weight_ih_l1 f4 [128, 128]
0	0xbceb7076	-0.028740149
1	0xbdbfae0b	-0.09359368
2	0x3d0ac0ec	0.03387539
3	0x3cfa9b46	0.030591618
4	0x3c668a36	0.014071038
5	0xbc92ad52	-0.017904911
6	0xbd8682e7	-0.065679364
7	0x3d7fa8d0	0.06241685
8	0x3cf9026c	0.030396663
9	0xbd436b3b	-0.047709685
10	0xbd7ba95a	-0.061440803
11	0x3cca15a2	0.024668518
12	0xbd09179a	-0.033469774
13	0x3d377280	0.04478693
14	0x3d1d0d37	0.03834268
15	0x3d792e35	0.060835082
16	0xbde0452e	-0.10950695
17	0xbd19320f	-0.037401255
18	0xbdcd6c87	-0.100304656
19	0xbdbe39a2	-0.09288336
20	0x3ccf49e8	0.025303796
21	0x3dc0fd6e	0.09423338
22	0x3d938c79	0.072045274
23	0xbdc7150c	-0.09720811
24	0x3d83e63d	0.06440399
25	0xbd699e38	-0.057035655
26	0xbdd09f79	-0.10186667
27	0x3c338944	0.01095802
28	0x3d0bcaa3	0.034128796
29	0xbcd10137	-0.025513275
30	0x3d1be5ca	0.03806094
31	0x3dacdb59	0.08440275
32	0xbd4b8676	-0.04968878
33	0xbdedf433	-0.11618843
34	0x3d125d16	0.035733305
35	0x3c5276ec	0.012845736
36	0xbc7ea4bf	-0.015542208
37	0xbc3df597	-0.011594198
38	0xbc866591	-0.016405853
39	0xbcde7359	-0.027154611
40	0xbd4b45b8	-0.049627036
41	0x3b959e62	0.004566
42	0xbcbe3d33	-0.023222541
43	0x3cc97e9d	0.024596507
44	0xbc647dd2	-0.0139460135
45	0xb98c0d92	-0.00026712992
46	0xbbab399d	-0.005225374
47	0xbd973c76	-0.07384579
48	0xbd91547d	-0.07096193
49	0x3d5fdebf	0.054655787
50	0xbcec4549	-0.028841631
51	0xbe25879b	-0.1616501
52	0xbd753304	-0.059863105
53	0xbdcfc2cb	-0.10144576
54	0xbc45f4a2	-0.012082251
55	0xbcc2de87	-0.02378775
56	0x3df43836	0.11924784
57	0x3dba061f	0.09083199
58	0xbca1a8d2	-0.01973382
59	0x3ca066cc	0.019580267
60	0xbd5e888e	-0.054329447
61	0x3d29bd14	0.041440085
62	0x3dcf5c9c	0.10125086
63	0x3dfbee91	0.12301362
64	0xbc863c98	-0.016386315
65	0x3d920840	0.0713048
66	0xbd2c965c	-0.04213558
67	0xbde5900d	-0.11209116
68	0xbb47e51a	-0.0030501545
69	0x3d8b506a	0.06802447
70	0x3c299cef	0.010352357
71	0x3dd2a126	0.10284643
72	0x3e304e3a	0.17217341
73	0x3c450064	0.012024019
74	0x3cbf3bfd	0.023344034
75	0xbc482c0c	-0.012217533
76	0x3ad43ed1	0.0016193037
77	0x3d8c4a82	0.06850149
78	0xbd9e096d	-0.077166416
79	0xbdc2d7d8	-0.09513825
80	0x3c3cf965	0.01153407
81	0xbc9c3e72	-0.019072745
82	0x3c8a986b	0.016918382
83	0x3d8a2a58	0.06746358
84	0x3d0b99c8	0.034082204
85	0xbe295b56	-0.16538748
86	0xbcaa3945	-0.020779261
87	0xbcb75ed2	-0.022384081
88	0xbda10258	-0.07861775
89	0xbdc6b7a6	-0.09702997
90	0xbaf75c81	-0.0018872173
91	0xbce4f96c	-0.027950965
92	0x3de932a9	0.11386616
93	0x3cd44e4a	0.025916237
94	0x3a83432c	0.0010014526
95	0xbd4f2a6f	-0.050577577
96	0xbc7ab102	-0.015300991
97	0xbcc6ee38	-0.024283513
98	0xbd88ed8f	-0.06685936
99	0x3d8cb78c	0.06870946
100	0x3d637d82	0.055539615
101	0x3b42c512	0.0029719514
102	0xbc605107	-0.013691193
103	0x3c69672e	0.014245791
104	0x3d932044	0.071838886
105	0x3dc151a7	0.09439402
106	0xbd88a83f	-0.066727154
107	0x3bce5b77	0.0062975246
108	0xbda3f1a0	-0.08005071
109	0x3c6de20a	0.014519224
110	0x3d02882a	0.031868137
111	0xbdabcdef	-0.08388888
112	0x3e02e880	0.12784004
113	0xbd62bfc8	-0.055358678
114	0x3c6a140c	0.014287006
115	0x3d1e3706	0.038626693
116	0x3d85aa59	0.06526632
117	0x3c1113ee	0.008854849
118	0xbd100c2a	-0.03516785
119	0x3c1966b3	0.009362864
120	0xbbdfb200	-0.006826639
121	0x3d5c60f7	0.05380341
122	0xbdd6927e	-0.1047716
123	0xb84d0762	-4.8882684e-05
124	0x3d80a304	0.06281093
125	0xba999709	-0.0011717986
126	0xbcb4e417	-0.022081418
127	0xbd7b1372	-0.06129784
128	0xbc5b2c89	-0.013377317
129	0x3ce3f78d	0.027828002
130	0xbc0eb1a0	-0.008709341
131	0x3d872b6b	0.06600078
132	0xbd14d917	-0.036339846
133	0x3d8a8ee5	0.06765536
134	0x3e000654	0.12502414
135	0x3d308112	0.04309184
136	0x3de37813	0.11106887
137	0xbd9f59b3	-0.07780781
138	0x3dda4f16	0.10659616
139	0x3da5cca4	0.08095673
140	0xbde01e82	-0.10943319
141	0xbcf995b1	-0.030466886
142	0xbccfe4da	-0.02537768
143	0x3d5e34ee	0.054249696
144	0xbd095fde	-0.03353869
145	0x3dc99bca	0.098441675
146	0xbd363e06	-0.044492744
147	0x3c279292	0.010227816
148	0xbd2079f3	-0.0391788
149	0x3d83f5fb	0.064434014
150	0xbd45ab9e	-0.04825937
151	0xbd6871a8	-0.056749016
152	0xbd01ca2b	-0.031686943
153	0xbd87a139	-0.06622548
154	0x3d8ad9e3	0.0677984
155	0x3c16d0c2	0.009205045
156	0x3cf4ceab	0.029883703
157	0xbd81fb3b	-0.063467465
158	0x3de54e27	0.11196547
159	0x3bc1fa01	0.0059196954
160	0xbdd9b645	-0.10630468
161	0xbdcc8762	-0.0998676
162	0x3dd2898c	0.10280141
163	0x3d5eb7aa	0.054374374
164	0x3daca68f	0.08430206
165	0xbd89dfc4	-0.06732133
166	0xbd49a8c7	-0.049233224
167	0x3cafbe4b	0.021453043
168	0x3d5bb9d7	0.053644028
169	0xbcc3083a	-0.023807634
170	0x3db4a543	0.08820584
171	0x3d272b7b	0.04081295
172	0x3c84de1d	0.016219193
173	0x3af1caf9	0.0018447331
174	0x3da06e2a	0.07833512
175	0x3dc7facd	0.09764633
176	0x3dabae59	0.083828636
177	0x3d5411f5	0.051774938
178	0x38915af8	6.931083e-05
179	0x3c4bfcb6	0.012450388
180	0xbd543a12	-0.051813193
181	0x3d1865c5	0.03720643
182	0x39c13d17	0.00036857344
183	0x3c5d8cc8	0.013522334
184	0xbcd23b14	-0.025662936
185	0xbd44888e	-0.04798179
186	0xbbf57d6c	-0.007491758
187	0x3a893207	0.001046718
188	0xbdb84575	-0.08997623
189	0xbd853993	-0.06505122
190	0xbdcb9dad	-0.09942184
191	0xbde183fb	-0.110115014
192	0x3d1a6d4d	0.037701894
193	0xba5864d5	-0.0008254771
194	0x3daf8057	0.08569401
195	0xbd4c4695	-0.049872
196	0x3d8a395a	0.0674922
197	0xbd5074d6	-0.050892673
198	0x3ceb2e0a	0.028708477
199	0xbc1091c2	-0.008823814
200	0xbca39dfc	-0.019972794
201	0x3d41602b	0.047210854
202	0xbd8f029b	-0.06982919
203	0x3db47d8a	0.08813007
204	0xbc0985a5	-0.00839368
205	0xbd725302	-0.059161194
206	0xbd082378	-0.03323695
207	0xbdc6d562	-0.09708668
208	0x3d24ba9b	0.040217023
209	0x3c308b33	0.010775375
210	0xbe03d389	-0.12873663
211	0x3da022fc	0.07819173
212	0xbd9052aa	-0.07047017
213	0x3d3dcc41	0.04633737
214	0xbdd53717	-0.10410898
215	0xbd0a2a95	-0.033732016
216	0xbbabf65b	-0.0052478737
217	0xbdc86e4c	-0.097866625
218	0x3dd289eb	0.10280212
219	0x3ce9d205	0.028542528
220	0xbdc5a0d4	-0.09649816
221	0xbc037f7d	-0.008026001
222	0x3da499a4	0.08037117
223	0xbcb188e7	-0.021671725
224	0xbd15809a	-0.036499597
225	0x3cfabcaa	0.03060754
226	0xbcc422e9	-0.023942428
227	0xbd3b22d8	-0.045687526
228	0x3d06c36c	0.032901213
229	0x3c101ce1	0.008795948
230	0x3882a36c	6.229323e-05
231	0x3d159506	0.036519073
232	0x3d126771	0.03574318
233	0x3db8e4e3	0.09028032
234	0x3d306452	0.043064423
235	0x3ccbe1ea	0.024887998
236	0x3d26e457	0.040745106
237	0xbbe3ff91	-0.006957956
238	0x3e10e572	0.14150026
239	0x3dc7fba3	0.09764793
240	0xbd78efa7	-0.060775425
241	0xbd415290	-0.04719788
242	0x3d733207	0.05937388
243	0x3db20dd8	0.08694047
244	0xbda4fab6	-0.08055632
245	0xbde11ab2	-0.1099142
246	0x3c5d8d30	0.013522431
247	0x3c6e4f17	0.014545224
248	0xbdd690a7	-0.10476809
249	0x3d7c65ff	0.06162071
250	0x3d4d68cc	0.05014877
251	0x3dadb9e7	0.08482724
252	0x3d3b0560	0.045659423
253	0x3d83a8ea	0.06428702
254	0xbd20acc3	-0.03922726
255	0x3d26ff26	0.040770672

weight_hh_l1 f4 [128, 128]
0	0x3c4ddfce	0.012565566
1	0x3d6065f5	0.054784734
2	0xbc494cac	-0.012286346
3	0x3dc324ef	0.09528529
4	0x3d168384	0.036746517
5	0x3d4131ad	0.047166515
6	0x3c8446fd	0.016147131
7	0x3d1b7596	0.037953936
8	0xbc71b5c9	-0.014752814
9	0x3da18375	0.078864016
10	0xb9c1efaa	-0.00036990392
11	0x3db0501c	0.0860903
12	0xbd8e3d77	-0.06945317
13	0xbcd0b3b0	-0.025476307
14	0x3cdde47b	0.027086487
15	0xbd580799	-0.05274162
16	0xbcfd6b46	-0.030934941
17	0x3b25eab3	0.0025316894
18	0x3cbf230a	0.023332138
19	0x3d15ff76	0.03662058
20	0x3daf661b	0.08564397
21	0x3c90e8c0	0.017689109
22	0x3c9e6ba4	0.019338436
23	0xbc79d105	-0.015247588
24	0xbd53a6a0	-0.051672578
25	0xbdc80e75	-0.097683825
26	0xbd94a83b	-0.0725865
27	0xbd036acb	-0.032084268
28	0x3cb45c0e	0.022016551
29	0xbdc3bd67	-0.0955761
30	0x3c32c529	0.010911264
31	0xbc87058f	-0.016482143
32	0xbd3998b2	-0.045311637
33	0xbd2484e2	-0.04016579
34	0x3d6ebb95	0.05828436
35	0x3d6038a6	0.054741524
36	0xbc126438	-0.008935027
37	0xbd337221	-0.043810014
38	0x3d1fc6e0	0.03900802
39	0x3d6520a0	0.055939317
40	0x3d8bd0ab	0.0682691
41	0x3dd07254	0.10178056
42	0x3d5e3618	0.054250807
43	0x3b9bb2af	0.0047515254
44	0xbd941e26	-0.07232313
45	0x3d816c28	0.06319457
46	0xbd82f4e5	-0.06394366
47	0x3d56f2fa	0.052477814
48	0x3da68755	0.08131281
49	0xbcf24e3d	-0.029578323
50	0xbd03412d	-0.03204458
51	0xbdb2ac06	-0.08724217
52	0xbc0d59e4	-0.008627389
53	0x3916e77c	0.0001439135
54	0x3daebf63	0.08532598
55	0xbd9539cb	-0.07286414
56	0xbdbfe970	-0.093706965
57	0x3bc36e30	0.005964063
58	0xbce46e67	-0.027884675
59	0x3d7d1f02	0.06179715
60	0x3dafe96d	0.08589444
61	0x3c729d93	0.014808076
62	0x3c4fc268	0.012680627
63	0x3c307df8	0.010772221
64	0x3da932a5	0.08261613
65	0xbd6a0c65	-0.057140727
66	0xbd39ddbf	-0.04537749
67	0xbc6fdb13	-0.014639634
68	0xbc49e066	-0.012321567
69	0x3d2e194b	0.04250459
70	0xbdbb8f77	-0.09158223
71	0x3db0f457	0.08640354
72	0xbd626c4e	-0.05527907
73	0xbd85faa4	-0.065419465
74	0x3cb73c31	0.022367569
75	0x3b9d36a1	0.004797772
76	0xbd4677ce	-0.0484541
77	0xbdc1d8dc	-0.09465191
78	0xbd9316fa	-0.07182117
79	0x3d34c80e	0.0441361
80	0xbd774e44	-0.060377374
81	0x3d9ed018	0.077545345
82	0xbd8bae45	-0.06820349
83	0x3d84642d	0.064644195
84	0x3c55f39f	0.013058572
85	0x3d548301	0.051882748
86	0x3d5aa99e	0.053384416
87	0xbdaa70b9	-0.083222814
88	0x3d634fc0	0.055495977
89	0x3d678c3b	0.05653022
90	0x3d2865a9	0.041112576
91	0x3d681c53	0.056667637
92	0xbcd52b9a	-0.026021767
93	0x3d3819c1	0.044946436
94	0x3c5bd544	0.013417546
95	0xbda8d628	-0.08243972
96	0xbd57259c	-0.0525261
97	0x3d848a27	0.06471663
98	0x3b42c2c4	0.002971814
99	0x3d0388db	0.032112937
100	0x3db7bad1	0.08971179
101	0xbde4e147	-0.11175781
102	0x3d48d489	0.049030814
103	0xbd9e4889	-0.07728679
104	0x3cd6cd47	0.02622093
105	0x3def8929	0.11696083
106	0xbd64e57a	-0.05588291
107	0x3cbcad49	0.023031848
108	0x3d70a7f2	0.058753915
109	0xbd76d1b4	-0.060258582
110	0xbc84dcae	-0.01621851
111	0xbc5da064	-0.01352701
112	0xbda4a6b1	-0.08039606
113	0xbd53b04e	-0.05168181
114	0x3d7c56d7	0.061606254
115	0x3db50fe6	0.08840923
116	0xbc8512e0	-0.016244352
117	0x3c5b5b41	0.013388456
118	0x3daf7035	0.08566324
119	0x3bb5e175	0.005550558
120	0x3d8d99c5	0.06914095
121	0x3d881eb9	0.06646485
122	0x3d8320bf	0.0640273
123	0xbd6c671f	-0.05771553
124	0x3dc358fa	0.09538455
125	0x3c4fd508	0.012685068
126	0xbbd90331	-0.006622695
127	0xba78e9a2	-0.0009495263
128	0xbdbd7404	-0.09250644
129	0x3d08a9e5	0.03336515
130	0x3c2bbd4e	0.0104821455
131	0x3d9157f2	0.07096852
132	0xbc3d41f0	-0.011551365
133	0xbda393bc	-0.079871625
134	0x3d5c46c3	0.05377842
135	0xbd5e8d59	-0.05433402
136	0xbae92657	-0.0017787915
137	0x3d2e5caa	0.04256884
138	0x3d8f2ef1	0.06991375
139	0xbccdc698	-0.025119111
140	0xbd37e288	-0.04489377
141	0x3d569653	0.052389454
142	0x3abe4d16	0.0014518823
143	0xbd350d10	-0.04420191
144	0x3d565159	0.052323673
145	0xbd129665	-0.03578796
146	0xbd63bbd3	-0.055599045
147	0x3d19cefa	0.037550904
148	0x3c945f5e	0.01811188
149	0x3aa951cf	0.0012918058
150	0x3cfddfb7	0.030990465
151	0xbd5475ce	-0.05187016
152	0xbc7c35f1	-0.01539372
153	0x3c0d7962	0.008634897
154	0x3dadec25	0.084923066
155	0xbcaa4a99	-0.020787524
156	0xbd850516	-0.06495111
157	0xbd2bb006	-0.041915916
158	0x3b9109e9	0.00442623
159	0x3bbe80a3	0.0058136745
160	0xbd45366e	-0.04814761
161	0xbc8907bf	-0.016727326
162	0xbd9194a5	-0.0710843
163	0x3cd26190	0.025681287
164	0xbd68ef76	-0.056868993
165	0xbd8d18a9	-0.06889469
166	0x3cce9852	0.025219116
167	0xbd98570c	-0.07438478
168	0xbc7496a0	-0.01492849
169	0xbdbba971	-0.09163178
170	0xbd0e5402	-0.034748085
171	0xbd316e24	-0.04331793
172	0xbd488c80	-0.048962116
173	0x39747d0b	0.00023316235
174	0xbd6f6709	-0.05844787
175	0xbb78a918	-0.0037942585
176	0xbd0dc7c9	-0.034614358
177	0x3d8da07a	0.06915374
178	0x3d11c7dd	0.035590995
179	0xbd62efb5	-0.055404384
180	0xbd7f1cb2	-0.062283225
181	0x3d08349d	0.0332533
182	0xbbaa1152	-0.005190053
183	0x3cda0fcd	0.026618863
184	0xba9cbd1d	-0.0011958216
185	0x3d3bfc6b	0.04589502
186	0xbd9bd471	-0.07608879
187	0xbd6209fd	-0.055185307
188	0x3d7e2ce9	0.06205455
189	0xbd552d37	-0.052045073
190	0xbceee995	-0.029164115
191	0xbd52a35a	-0.051425315
192	0xbd65be73	-0.05608983
193	0xbcb53cca	-0.022123713
194	0xbceb4f0f	-0.028724222
195	0x3bf1f5fe	0.007384061
196	0x3c669872	0.014074432
197	0xbdac4339	-0.08411259
198	0x3c800ff8	0.015632614
199	0x3d097ba1	0.033565167
200	0x3daa8cef	0.08327662
201	0xbd740bfd	-0.059581745
202	0xbd2784d8	-0.040898174
203	0xbd7da9d9	-0.061929557
204	0x3c8df61d	0.01732927
205	0xbd270fdb	-0.040786605
206	0xbd77d342	-0.060504206
207	0x3d927915	0.07152001
208	0x3d51b9b0	0.051202476
209	0x3d3cac4e	0.04606276
210	0xbd13402a	-0.035949863
211	0x3cf69be0	0.030103624
212	0x3dd693f6	0.1047744
213	0xbccb8481	-0.024843456
214	0x3d76986c	0.060203955
215	0xbc947bbd	-0.01812541
216	0xbd854122	-0.06506564
217	0xbcb79e29	-0.022414284
218	0xbd268a74	-0.040659383
219	0xbd3a660e	-0.045507483
220	0x3da97090	0.08273423
221	0xbd10c49b	-0.035343748
222	0x3c9ac665	0.01889343
223	0x3c1f3d7f	0.009719252
224	0x3cfe24a7	0.031023337
225	0xbd910950	-0.07081854
226	0x3da161ee	0.07880007
227	0xbbe6be15	-0.0070417025
228	0xbd7953d2	-0.060870953
229	0x3db44049	0.08801324
230	0x3b9dc470	0.004814677
231	0x3c17bda9	0.009261527
232	0xbd3ddc00	-0.046352386
233	0xbd3a4edb	-0.04548536
234	0x3d9405fd	0.07227705
235	0xbd2bd7c7	-0.04195383
236	0x3d586ef1	0.052840177
237	0x3aa7bfb3	0.001279822
238	0x3b31e924	0.002714702
239	0x3d341e4d	0.04397421
240	0xbd0e1618	-0.03468904
241	0x3d3b0d2d	0.045666862
242	0x3da7fae4	0.082021505
243	0x3cb1ab68	0.021688178
244	0x3d046a86	0.03232815
245	0xbda9bc5c	-0.0828788
246	0xbd5c8f88	-0.05384782
247	0x3c48e924	0.012262616
248	0xbd9c7acb	-0.076406084
249	0xbd7dc8cd	-0.061959077
250	0xbd602cc3	-0.054730188
251	0xbd8c3b9a	-0.068473056
252	0xbc9d942f	-0.019235699
253	0xbd930122	-0.071779504
254	0xbd19234c	-0.037387177
255	0xbc56fe14	-0.0131221

bias_ih_l1 f4 [128]
0	0xbd43b70b	-0.047781985
1	0x3bf8ea3a	0.0075962814
2	0x3d8980a6	0.06713991
3	0x3d919093	0.071076535
4	0x3d144559	0.036198948
5	0xbd79dbe0	-0.061000705
6	0x3c8217de	0.015880521
7	0x3d94b152	0.07260384
8	0x3da1650e	0.07880603
9	0xbbb34385	-0.0054706954
10	0xbdb87dd9	-0.090083785
11	0x3d95bf91	0.07311929
12	0xbd06acc7	-0.032879617
13	0x3d237aac	0.03991191
14	0xbd568c89	-0.05238012
15	0xbda181ed	-0.078861095
16	0xbd42ab3a	-0.047526576
17	0xbd7f4a54	-0.062326744
18	0x3da6cbdd	0.081443526
19	0x3cc1d2b8	0.023660049
20	0xbd74de35	-0.059782226
21	0x3d616550	0.05502826
22	0xbc94753d	-0.01812231
23	0xbb13ae53	-0.0022534325
24	0x3d9b8125	0.07592992
25	0xb9d30e5e	-0.0004025576
26	0xbbda37d8	-0.006659489
27	0x3d2b24e4	0.04178323
28	0xbc343058	-0.010997854
29	0xbd6b2e20	-0.057417035
30	0xbd3845f8	-0.044988602
31	0x3bf6ee9c	0.0075357687
32	0xbd1d96b0	-0.038473785
33	0xbdba0de4	-0.09084681
34	0xbc352af2	-0.011057602
35	0xbc8d15ec	-0.017222367
36	0x3d3e2a53	0.046427082
37	0xbbf11c0e	-0.0073580807
38	0x3d3a4d9f	0.04548418
39	0xbd734eba	-0.05940125
40	0xbdae1339	-0.0849976
41	0xbd50bde0	-0.05096233
42	0x3d87f774	0.06638995
43	0x3dbf4d29	0.09340889
44	0xbd80a872	-0.062821284
45	0xbcabe0b0	-0.020981163
46	0x3c865146	0.016396176
47	0xbd0f0f0f	-0.03492647
48	0xbd475fc4	-0.048675314
49	0x3d4976f5	0.049185712
50	0xbad03447	-0.001588472
51	0xbc777cdd	-0.015105453
52	0x3bb282c0	0.0054477155
53	0xbd2ddc64	-0.04244651
54	0x3ca477e7	0.020076705
55	0x3d6d2ce4	0.05790414
56	0xbd747e79	-0.059690926
57	0xbd94a546	-0.07258086
58	0xbd03c78b	-0.03217272
59	0xbd0c4f7e	-0.034255497
60	0xbcdcadb8	-0.026938304
61	0xbd61091e	-0.054940335
62	0xbc77f1d8	-0.015133344
63	0xbdcff7e2	-0.10154702
64	0x3d2880ae	0.041138344
65	0x3d4defa5	0.05027737
66	0x3d9b97f4	0.07597342
67	0x3cc845fc	0.024447434
68	0x3dad9cd8	0.08477181
69	0xbd45e3b4	-0.048312858
70	0x3d4f4b6d	0.05060904
71	0xbd078439	-0.03308508
72	0x3da24332	0.07922973
73	0x3c1ed5dd	0.009694544
74	0x3d8e6ff1	0.06954945
75	0x3c8a7a21	0.016903939
76	0x3d2aa904	0.041665092
77	0x3cb288b6	0.021793704
78	0xbd901035	-0.07034341
79	0xbd7fcc93	-0.062450957
80	0x3ccf3771	0.025294991
81	0x3d86986e	0.065720424
82	0x3cbd3e22	0.023100916
83	0xbdc728e2	-0.09724595
84	0x3dd87cdf	0.10570692
85	0xbd6a6725	-0.057227273
86	0x3d154067	0.036438372
87	0xbd1590e9	-0.03651515
88	0x3c699a97	0.0142580485
89	0xbd4714f6	-0.048603974
90	0x3c95b2d4	0.018273748
91	0xbbcfba98	-0.0063393824
92	0xbd88d51e	-0.06681274
93	0x3abb6ade	0.0014298817
94	0xbd2ac5be	-0.041692488
95	0x3d711bd8	0.058864444
96	0xba0c5119	-0.00053526607
97	0x3db51e7f	0.08843707
98	0xbd89866c	-0.06715092
99	0xbd4f6a67	-0.050638583
100	0xbac8e1b9	-0.001532606
101	0xbd1162e0	-0.035494685
102	0xbd302308	-0.04300216
103	0x3cf6c865	0.030124852
104	0x3d3f9796	0.046775423
105	0xbbdd7d63	-0.006759332
106	0x3c04e0c1	0.008110226
107	0x3cb3204f	0.021865992
108	0xbbc405e5	-0.005982148
109	0xbdb36bff	-0.08760833
110	0xbdddd788	-0.10832125
111	0x3d34c796	0.044135652
112	0xbcc3b0f1	-0.023888083
113	0xbdcf6886	-0.10127358
114	0x3d2cbf6a	0.042174734
115	0xbd6afd9e	-0.057370774
116	0xbd0a1658	-0.033712715
117	0x3d9d1ca1	0.07671476
118	0xbd43c041	-0.04779077
119	0x3dd23482	0.10263921
120	0x3b86e3e6	0.004116523
121	0xbd43d4da	-0.047810413
122	0xbda23de8	-0.07921964
123	0x3b2446d1	0.0025066624
124	0x3d838fa8	0.06423885
125	0xbcdfbb0a	-0.027310867
126	0x3daa078f	0.08302223
127	0x3d75ddf3	0.06002612

bias_hh_l1 f4 [128]
0	0xbdad503b	-0.08462568
1	0xbd6f8f48	-0.058486253
2	0xbd1b391d	-0.037896264
3	0x3dda9914	0.106737286
4	0x3d9ced0a	0.07662399
5	0x3cdf85c5	0.027285466
6	0x3d58ed5e	0.052960746
7	0xbd6e0322	-0.058108456
8	0x3d0834f6	0.033253632
9	0xbd54695e	-0.0518583
10	0xbdc76fa0	-0.09738088
11	0xbd67041b	-0.0564004
12	0x3d830d3c	0.06399009
13	0x3c19cc9e	0.009387163
14	0x3d245c8a	0.040127315
15	0xbce356b0	-0.027751297
16	0x3d9bfeec	0.07616982
17	0xbcbd7f5f	-0.023132024
18	0xbda2eaf0	-0.07954967
19	0x3bfaa30f	0.0076488326
20	0xbd754414	-0.059879377
21	0xbd41a280	-0.047274113
22	0xbdaf3d4b	-0.085566126
23	0x3d2762b8	0.04086563
24	0xbd5f4f6e	-0.05451911
25	0xbd3d8849	-0.04627255
26	0x3dcb1756	0.0991656
27	0xbbfbfd5c	-0.007690115
28	0x3da11411	0.078651555
29	0x3d089693	0.033346724
30	0xbd9c3bc0	-0.07628584
31	0x3b7571d9	0.0037451892
32	0x3b1fcbd8	0.0024382975
33	0xbd3ee649	-0.046606336
34	0x3d045ef7	0.032317128
35	0xbd366a9a	-0.044535257
36	0x3daf38dd	0.08555768
37	0xbd26da1c	-0.04073535
38	0xbd641db7	-0.0556924
39	0x3d7da7d7	0.061927643
40	0xbbddc9ec	-0.0067684557
41	0x3d1dbbd2	0.038509198
42	0x3c987182	0.018608812
43	0xbc514d74	-0.012774814
44	0x3c4f9b66	0.012671327
45	0x3d8fd485	0.07022957
46	0xbdbc76eb	-0.09202369
47	0xba5a1b18	-0.00083200773
48	0xbd61bbf6	-0.055110894
49	0x3c7d3fe7	0.01545713
50	0x3cecd5ad	0.028910482
51	0x3d88c61b	0.066784106
52	0xbd2350d1	-0.039871994
53	0x3d5db22b	0.054124992
54	0xbd7cd397	-0.061725225
55	0xbc26ada4	-0.010173235
56	0x3d806451	0.06269134
57	0x3d5d30e9	0.054001722
58	0x3d71ff76	0.059081517
59	0xbd6b582d	-0.057457138
60	0x3c44b1b2	0.0120052565
61	0xbd7c9e74	-0.06167455
62	0xbda6175c	-0.08109924
63	0xbdc92baf	-0.09822785
64	0xbbed4e49	-0.0072419983
65	0x3cfcf33f	0.030877708
66	0x3d6a92f7	0.057269063
67	0x3db0e4ff	0.086374275
68	0xbcbb3c42	-0.022855882
69	0xbdcf1786	-0.101119086
70	0x3d95350b	0.07285508
71	0xbda21ba9	-0.07915432
72	0xbb3182d2	-0.0027086032
73	0xbd38c944	-0.045113817
74	0x3d408273	0.046999406
75	0x3cc048e7	0.023472263
76	0x3d995412	0.07486738
77	0x3bcd70f2	0.0062695676
78	0x3da6bfb5	0.08142034
79	0xbc93ada6	-0.018027138
80	0xbd5445bf	-0.051824328
81	0x3d2874cf	0.041127022
82	0x3c5520b6	0.013008287
83	0xbdc4c24b	-0.09607371
84	0x3db2c1a8	0.08728343
85	0xbd6c2da2	-0.057660706
86	0x3db01ec1	0.08599616
87	0x3d88e235	0.066837706
88	0x3d5ec15e	0.054383628
89	0xbd53d117	-0.051713075
90	0x3cf6aa4f	0.030110506
91	0xbcefdb02	-0.029279236
92	0xbdc2b387	-0.095068984
93	0xbcd150ab	-0.02555116
94	0x3da10765	0.078627385
95	0xbd9c7845	-0.07640127
96	0xbd6d0518	-0.057866186
97	0x3d940e48	0.072292864
98	0x3d83adc1	0.06429625
99	0xbd8699e0	-0.06572318
100	0xbd8b8eff	-0.06814384
101	0xbd4e33d0	-0.05034238
102	0xbd44165e	-0.047872894
103	0x3d0600f8	0.032715768
104	0x3d1fe53b	0.03903697
105	0x3cc56f6f	0.024100987
106	0xbd45c840	-0.048286676
107	0x3cf9ef23	0.030509537
108	0xbdc5af76	-0.09652607
109	0xbc8495c2	-0.016184691
110	0x3c8e9f3f	0.017409919
111	0x3d98b3ac	0.07456145
112	0x3c22e675	0.009942641
113	0xbd69b242	-0.057054766
114	0x3d8e52b5	0.06949369
115	0xbd4c96a3	-0.049948346
116	0x383cb212	4.4988534e-05
117	0x3cbd7ca1	0.023130717
118	0x3d8e8fa0	0.06960988
119	0x3c92525b	0.017861536
120	0x3dcb6c66	0.09932785
121	0xbd15f1c3	-0.036607515
122	0x3bfae646	0.0076568453
123	0x3cb4f5ba	0.022089828
124	0xbdd3a852	-0.10334839
125	0x3d7425d5	0.059606392
126	0x3d5a7665	0.053335566
127	0x3da1e99e	0.07905887

weight_ih_l2 f4 [128, 128]
0	0x3d998fd4	0.07498136
1	0xbb6dc161	-0.0036278593
2	0xbd7e073d	-0.06201862
3	0xbacf72c2	-0.0015827047
4	0xbd6491e2	-0.055803187
5	0xbd75e60a	-0.060033835
6	0xbc93d0b4	-0.018043853
7	0xbb94c0e0	-0.004539594
8	0x3da43074	0.08017054
9	0x3c04d678	0.008107774
10	0xbd895564	-0.0670574
11	0x3dbf20e5	0.09332446
12	0xbc833ef0	-0.016021222
13	0xbd41dc6a	-0.047329344
14	0x3d926cfe	0.07149695
15	0xbd9d985c	-0.07695076
16	0x3d085ee3	0.033293616
17	0xbd4ba2c9	-0.04971579
18	0xbdc43dbf	-0.0958209
19	0x3d94f046	0.07272391
20	0xbbba79b0	-0.005690776
21	0xbc5aa9cf	-0.01334615
22	0x3de9411a	0.1138937
23	0x3d81ff1b	0.06347486
24	0x3d976277	0.073918276
25	0x3c8ff772	0.017574046
26	0x3d9f7fbc	0.07788035
27	0xbd13bf6b	-0.036071222
28	0x3d84805d	0.06469796
29	0x3bf029e5	0.007329213
30	0x3c80ffe8	0.015747026
31	0x3bfbb0e8	0.007681001
32	0x3baf51d7	0.0053503322
33	0x3dc58d2c	0.09646067
34	0x3d947617	0.07249086
35	0x3d0e1df8	0.03469655
36	0x3d8eaef3	0.06966963
37	0x3dd5b9c9	0.10435826
38	0xbdbb8a5a	-0.09157248
39	0x3d91646d	0.07099233
40	0xbbd1ceb5	-0.006402815
41	0x3d3fc895	0.04682215
42	0xbce34b11	-0.027745755
43	0xbd32920c	-0.043596312
44	0xbc6a06d9	-0.014283859
45	0x3d66584f	0.05623656
46	0xbd3edfbc	-0.04660009
47	0x3d9d9881	0.076951034
48	0xbdcc5125	-0.099764146
49	0x3c8c28ee	0.01710936
50	0x3d8c29b4	0.06843892
51	0xbd262b24	-0.040568486
52	0xbda831d3	-0.08212628
53	0x3bee63e5	0.007275092
54	0xbd30b102	-0.043137558
55	0xbdcfb82e	-0.10142551
56	0xbd298475	-0.041386086
57	0xbd150b82	-0.036387928
58	0xbd02d909	-0.031945262
59	0xbd42d40c	-0.047565505
60	0xbd8cf753	-0.06883111
61	0x3cedc103	0.0290227
62	0xbd6f20bd	-0.05838083
63	0xbdb79104	-0.089632064
64	0x3d2879e2	0.04113186
65	0x3d447b37	0.04796907
66	0x3d11b192	0.035569735
67	0xbd9f6b10	-0.077840924
68	0x3e082cf8	0.13298404
69	0xbdb07c0f	-0.08617412
70	0x3d881fdd	0.066467024
71	0xbc1d96cb	-0.009618471
72	0xbd3bf5f6	-0.045888864
73	0x3dc86bc7	0.09786182
74	0x3dee548a	0.11637218
75	0x3cd08acd	0.02545681
76	0x3ddac1e1	0.10681511
77	0x3cbc4882	0.022983793
78	0x3c8ba1ee	0.017044988
79	0xbc686978	-0.014185302
80	0xbda95af7	-0.08269303
81	0x3dc040c9	0.09387357
82	0xbcf8fa6d	-0.03039285
83	0x3db62be9	0.08895094
84	0xbd68c158	-0.056825012
85	0xbdb5a700	-0.08869743
86	0xbd96b114	-0.07357994
87	0xbbe29488	-0.006914679
88	0x3d57529c	0.052569017
89	0x3db22660	0.08698726
90	0xbc2e9927	-0.010656632
91	0x3da19535	0.07889787
92	0xbd6e7975	-0.0582213
93	0xbba4737d	-0.00501865
94	0x3df444d9	0.11927194
95	0xbd4516cf	-0.048117455
96	0x3d621dde	0.055204265
97	0xbcb1f9cc	-0.021725558
98	0x3ae47a64	0.0017431495
99	0x3ca1cbb2	0.01975045
100	0x3d2c645e	0.042087905
101	0xbd944ee9	-0.072416134
102	0xbd1e0832	-0.038582034
103	0x3dbdaa48	0.09260994
104	0xbbbb6a8c	-0.0057194885
105	0x3d3253d3	0.043536972
106	0x3c0f2bb0	0.008738443
107	0xbd897b9c	-0.0671303
108	0x3cead595	0.028666297
109	0xbb6705d0	-0.0035251267
110	0x3d93d77c	0.07218835
111	0x3d752142	0.05984617
112	0xbd839be2	-0.06426217
113	0x3d024ba7	0.03181043
114	0xbd5828e0	-0.052773356
115	0x3cc8e22f	0.024521915
116	0x3dd41316	0.10355203
117	0xbd96cd42	-0.073633686
118	0xbd00a5d0	-0.03140813
119	0x3bc53caa	0.0060191946
120	0x3d132b25	0.035929818
121	0xbc30a219	-0.010780835
122	0x3c402486	0.011727458
123	0xbcbceb16	-0.023061316
124	0xbdc6d2ee	-0.097082004
125	0x3c8df500	0.01732874
126	0xbce113a7	-0.027475191
127	0x3c253c74	0.010085214
128	0xbca5d08d	-0.020241046
129	0xbdab79b1	-0.0837282
130	0xbcdcf28a	-0.02697112
131	0xbd66849b	-0.056278806
132	0x3d1810af	0.037125286
133	0x3d5f2b7e	0.054484837
134	0xbccb5bec	-0.024824105
135	0x3bfb8779	0.0076760617
136	0xbe061bf7	-0.13096605
137	0xbc6289cf	-0.013826801
138	0x3d8c4b84	0.06850341
139	0xbdc8ea79	-0.09810347
140	0x3e0abe47	0.13549148
141	0xbd0539e3	-0.03252591
142	0x3db32038	0.087463796
143	0x3c873082	0.016502623
144	0xbd9cc641	-0.076550014
145	0xbd62c064	-0.05535926
146	0xbd1e26eb	-0.038611334
147	0xbc8bc905	-0.017063627
148	0xbd9af263	-0.07565763
149	0x3d938c04	0.0720444
150	0x3d05f886	0.032707714
151	0x3aaf994f	0.001339713
152	0xbdf360f6	-0.11883728
153	0x3ddc36ae	0.10752617
154	0xbda3f746	-0.08006148
155	0x3d603bbb	0.054744463
156	0xbde26539	-0.11054463
157	0x3c91d0c6	0.017799746
158	0x3daf4ee6	0.085599706
159	0x3c275cd4	0.010215003
160	0x3c715766	0.01473031
161	0xbc071de9	-0.008246877
162	0x3d3e335e	0.046435706
163	0xbd224f6f	-0.039626535
164	0xbd50f50c	-0.051014945
165	0xbd0136c0	-0.031546354
166	0x3c34c6f7	0.011033765
167	0x3d20829b	0.039187055
168	0xbc26e52d	-0.010186476
169	0xbcf938be	-0.030422565
170	0xbdb32289	-0.087468214
171	0x3d2adeb3	0.04171629
172	0x3e0a2a46	0.13492689
173	0xbd30c9f7	-0.04316136
174	0xbc50a35a	-0.012734259
175	0x3a9459c1	0.0011318253
176	0x3d06e3ea	0.0329322
177	0xbde35575	-0.11100284
178	0xbcd6a117	-0.02619986
179	0x3c105900	0.008810282
180	0xbd5e76a7	-0.054312374
181	0x3bd1fc09	0.0064082188
182	0x3cb66c2e	0.022268381
183	0xbd7e0bf7	-0.06202313
184	0xbcc722a2	-0.024308506
185	0xbcfacda5	-0.030615637
186	0xbd6b76f2	-0.057486482
187	0x3d0f402c	0.03497331
188	0x3dd644bc	0.10462329
189	0x3dd6c6c4	0.1048713
190	0xbd86e3b4	-0.065864
191	0x3db9ff44	0.09081891
192	0x3d136fbd	0.035995234
193	0xbd43f59a	-0.047841646
194	0x3cb4c34b	0.02206578
195	0xbb82e329	-0.0039943648
196	0xbd62e4a2	-0.055393822
197	0x3d67c853	0.05658753
198	0x3d7cab96	0.061687075
199	0xbcc62588	-0.024187818
200	0x3d884d5a	0.06655379
201	0xbd6ee317	-0.05832204
202	0x3d010867	0.031502154
203	0x3d2f5708	0.04280761
204	0xbd34828d	-0.044069815
205	0x3d3773e5	0.04478826
206	0x3dafb55c	0.085795134
207	0x3cc7f7eb	0.024410209
208	0x3c75f88e	0.015012873
209	0x3b20d0fa	0.0024538622
210	0xbd4c0476	-0.04980894
211	0xbcfe11eb	-0.031014403
212	0xbd5df0be	-0.054184668
213	0xbc11ddc1	-0.008902968
214	0xbdd6c3f5	-0.104865946
215	0x39fc8481	0.0004816391
216	0x3d3a5bf8	0.045497864
217	0xb986fbeb	-0.00025746165
218	0x3dabecfb	0.0839481
219	0x3c9e1378	0.019296393
220	0x3d956aee	0.07295786
221	0xbb3094fa	-0.0026944266
222	0xbd6e91df	-0.058244582
223	0xbdb60c31	-0.08889044
224	0x3df65e50	0.120297074
225	0x3d166ed7	0.0367268
226	0x3c3cc861	0.011522383
227	0x3d99ac5a	0.075035766
228	0xbd8eb2d0	-0.069676995
229	0xbd1b54ef	-0.037922796
230	0xbcfd42aa	-0.030915577
231	0xbd7e5ff4	-0.062103227
232	0xbd0278f5	-0.031853635
233	0xbdc02c01	-0.09383393
234	0xbdaa843d	-0.08326004
235	0x3d48dbad	0.049037624
236	0xbd7aab49	-0.061198507
237	0x3d274bbd	0.040843714
238	0xbae20e58	-0.0017246706
239	0xbc388850	-0.011262968
240	0x3c87ce46	0.016577851
241	0x3dc9c27a	0.098515466
242	0xbda05cb9	-0.078301854
243	0xbd349d51	-0.04409534
244	0x3a54804c	0.0008106276
245	0xbda3b847	-0.079941325
246	0xb9beb614	-0.00036375283
247	0xbc684676	-0.014176955
248	0x3d133a49	0.035944257
249	0x3d77c030	0.06048602
250	0x3d3a7c38	0.04552862
251	0xbd311ac4	-0.043238416
252	0x3cbeea17	0.023304982
253	0xbc4b0052	-0.012390213
254	0xbcce63ec	-0.02519413
255	0x3aa68564	0.0012704548
