models/rnn_model_14.pkl (torch, 379959 bytes, 14 tensors)

weight_ih_l0 f4 [128, 50]
0.08780606 0.079899766 0.06249304 0.08460286 0.0020043855 -0.04107839 0.032713443 0.08434295
-0.019724121 0.011279136 -0.008304932 0.090886064 -0.008560562 0.121071905 0.11945068 0.025410432
0.046916686 0.028340532 0.11635454 0.121069886 0.03209318 0.08787158 -0.011818774 -0.046878923
0.05980536 -0.033470068 -0.025911083 -0.06295096 -0.048981436 -0.05675116 -0.037670434 -0.10865898
-0.04763987 0.025891973 -0.07171493 -0.079906814 -0.11487716 -0.113906965 -0.068427786 -0.0015796149
-0.10824403 -0.066392064 -0.16976142 -0.07464624 -0.04954101 -0.0035442323 -0.050113402 -0.12183904
-0.1352937 0.060574327 0.0084989 -0.09992783 0.08009623 0.1007883 0.010514851 0.022923402
0.14352757 0.16991863 0.08659034 0.13375258 -0.035834786 0.113593295 -0.02464847 0.09094473
0.0427466 0.023125317 -0.06898158 -0.099087134 -0.0777946 0.025616301 -0.06816204 -0.08012821
-0.0010206291 0.00594704 0.06096886 0.06280261 0.05095454 -0.018090127 -0.0138413375 0.10512198
0.108063705 -0.029755527 -0.010065732 -0.09585674 -0.06448023 0.09383921 0.059486523 0.02207018
0.054570418 0.019650618 0.014429694 0.082343586 0.08335638 0.029204642 -0.047053467 -0.024213776
-0.054160494 0.117265746 -0.072395526 -0.014174343 -0.20153774 -0.17308398 -0.18949051 -0.14908783
-0.015580239 -0.0792625 0.03980465 0.09198814 0.19522832 0.15514262 0.114929244 0.08502347
-0.058611233 0.018845966 0.14544542 0.102765396 0.036536403 0.059886266 -0.054705948 0.0345068
0.056703247 0.012930466 0.04236608 0.043733243 -0.02044113 0.034615073 0.0030806407 -0.0003623978
-0.048810545 -0.025256723 -0.06366694 -0.12093819 -0.09237391 -0.07589555 -0.08217275 0.09534779
0.06608889 0.0060091503 0.0069754994 0.0420686 -0.038708434 0.007845617 0.06422917 -0.0028081546
0.052873377 0.07230405 0.06895998 -0.1380982 -0.13706037 -0.2978278 0.08329429 -0.09801569
-0.114783354 -0.06297393 0.044292975 0.01109185 0.041162558 -0.0554355 0.06911769 -0.04709864
0.06367435 -0.117864914 -0.021646999 -0.0891588 0.01751002 -0.074237384 0.0926085 -0.07331657
0.026894003 0.09800969 0.0389045 0.03652394 0.083938286 0.09285822 0.02013925 0.047785375
-0.023676239 0.059553873 0.077304 0.034643292 -0.021441098 0.023745248 -0.008893013 0.08061233
-0.046748903 -0.061000478 -0.05395295 -0.028497782 0.0002886133 -0.05523132 0.05835734 0.07965382
-0.049578167 -0.03392378 0.0031841288 -0.027663467 0.017309487 -0.07830766 -0.06968011 -0.19636166
0.055924494 -0.009898476 0.10891963 -0.042544518 0.065932 0.0035908467 -0.08349602 -0.06457018
-0.087049074 -0.13814038 0.023915749 -0.04317742 0.016500548 0.071962684 0.0072140824 0.0153359575
-0.057083543 0.0074308114 0.0711771 0.017757595 -0.09184163 0.022026636 -0.065019056 -0.07756501
0.049755935 -0.106438 0.011812412 -0.11548669 -0.11069813 -0.01950302 0.052610572 0.010909178
-0.025281155 -0.046166763 -0.028812308 -0.082266055 0.011591889 -0.14216755 -0.14339645 0.05509377
0.06587307 0.029213654 -0.057064366 0.030419195 0.06968344 0.117533386 -0.027910253 -0.05181621
0.028436773 0.018077947 0.24559945 0.084966294 0.025397671 -0.061079577 0.0068971682 0.030671105
00000000: aad3 b33d 7da2 a33d b4f8 7f3d 4444 ad3d
00000010: 025c 033b d041 28bd 88fe 053d ffbb ac3d
00000020: 7b94 a1bc 20cc 383c 6911 08bc 7922 ba3d
00000030: 9941 0cbc 8cf4 f73d 8fa2 f43d 8a29 d03c
00000040: b62b 403d 672a e83c 4a4b ee3d 7df3 f73d
00000050: 2374 033d 04f6 b33d 88a3 41bc 1d04 40bd
00000060: 77f6 743d e917 09bd 7b43 d4bc 6fec 80bd
00000070: c2a0 48bd e873 68bd 504c 1abd 9988 debd
00000080: 0622 43bd 671b d43c 47df 92bd 2fa6 a3bd
00000090: b744 ebbd 0e48 e9bd de23 8cbd 150b cfba
000000a0: 0caf ddbd 90f8 87bd f0d5 2dbe 21e0 98bd
000000b0: 84eb 4abd 5a46 68bb b643 4dbd bf86 f9bd
000000c0: 6f8a 0abe c91c 783d f83e 0b3c f6a6 ccbd
000000d0: 7e09 a43d 196a ce3d 7b46 2c3c dcc9 bb3c
000000e0: e4f8 123e 26ff 2d3e 4756 b13d 70f6 083e
000000f0: 7fc7 12bd 9aa3 e83d 97eb c9bc 3b41 ba3d
00000100: 0f17 2f3d 4e71 bd3c 3746 8dbd 32ee cabd
00000110: c652 9fbd 47d9 d13c 8a98 8bbd 421a a4bd
00000120: a1c6 85ba 63df c23b 7cba 793d a89e 803d
00000130: b5b5 503d bf31 94bc c7c6 62bc 314a d73d
00000140: 8150 dd3d ddc1 f3bc bdea 24bc 8a50 c4bd
00000150: 360e 84bd c62e c03d 24a8 733d 86cc b43c
00000160: 3b85 5f3d 55fa a03c 866a 6c3c c1a3 a83d
00000170: c0b6 aa3d 933e ef3c 23bb 40bd f85b c6bc
00000180: 65d7 5dbd 0629 f03d 1b44 94bd 813b 68bc
00000190: e95f 4ebe ed3c 31be cd09 42be 7baa 18be
000001a0: 4244 7fbc 6154 a2bd 330a 233d 4764 bc3d
000001b0: efe9 473e b5dd 1e3e 0660 eb3d c920 ae3d
000001c0: 5512 70bd db62 9a3c a5ef 143e aa76 d23d
000001d0: 32a7 153d 4d4b 753d 5813 60bd 0157 0d3d
000001e0: aa41 683d 4eda 533c 0e88 2d3d a121 333d
000001f0: 2874 a7bc 89c8 0d3d 93e4 493b 3600 beb9
00000200: 91ed 47bd 30e7 cebc d063 82bd 71ae f7bd
00000210: 882e bdbd 206f 9bbd 304a a8bd b445 c33d
00000220: 9d59 873d 68e8 c43b bb92 e43b 2050 2c3d
00000230: bc8c 1ebd e78a 003c 958a 833d 0409 38bb
00000240: c191 583d 2514 943d e43a 8d3d 9d69 0dbe
00000250: 8e59 0cbe e37c 98be 3296 aa3d 73bc c8bd
00000260: 8913 ebbd 7af8 80bd 8d6c 353d 97ba 353c
00000270: 129a 283d 5610 63bd 938d 8d3d 81ea 40bd
00000280: b367 823d 2963 f1bd 0c55 b1bc e498 b6bd
00000290: 2c71 8f3c c509 98bd 86a9 bd3d ff26 96bd
000002a0: d050 dc3c 4eb9 c83d 535a 1f3d 209a 153d
000002b0: d6e7 ab3d 732c be3d 12fb a43c 99ba 433d
000002c0: acf4 c1bc c3ee 733d 8f51 9e3d 20e6 0d3d
000002d0: 3ea5 afbc 6585 c23c 00b4 11bc 1418 a53d
000002e0: c77b 3fbd a3db 79bd c5fd 5cbd 2e74 e9bc
000002f0: 0551 9739 3d3a 62bd 1b08 6f3d 8b21 a33d
00000300: 7a12 4bbd a9f3 0abd d1ac 503b 7f9e e2bc
00000310: a0cc 8d3c c45f a0bd 72b4 8ebd 0813 49be
00000320: 1511 653d 382d 22bc 4111 df3d 2943 2ebd
00000330: 5b07 873d 6954 6b3b f6ff aabd 5f3d 84bd
00000340: c946 b2bd ac74 0dbe f6ea c33c ceda 30bd
00000350: 282c 873c 2c61 933d 1c64 ec3b ab43 7b3c
00000360: 6fd0 69bd 2a7e f33b 4dc5 913d 6078 913c
00000370: 7717 bcbd 3471 b43c b628 85bd 67da 9ebd
00000380: e1cc 4b3d 2bfc d9bd d988 413c 4984 ecbd
00000390: b4b5 e2bd ccc4 9fbc 2f7e 573d 69bc 323c
000003a0: 6d1a cfbc 5c19 3dbd ca07 ecbc 1b7b a8bd
000003b0: e8eb 3d3c 5f94 11be 85d6 12be 01aa 613d
000003c0: 76e8 863d 7951 ef3c 53bc 69bd ad31 f93c
000003d0: 31b6 8e3d 58b5 f03d 0ba4 e4bc 3c3d 54bd
000003e0: 3cf4 e83c 3418 943c 6c7e 7b3e cf02 ae3d
000003f0: c70e d03c 942e 7abd a401 e23b f841 fb3c

weight_hh_l0 f4 [128, 128]
-0.21341637 -0.0049871644 0.042419374 0.12252277 0.010710215 -0.08309577 0.078784995 -0.08270449
0.038846802 -0.050646625 0.058961798 0.0046726307 0.025987573 0.11756469 0.022350144 0.10584051
-0.0071072066 -0.051298723 -0.045692172 -0.036228932 -0.038286984 0.036157846 -0.01780575 0.030685421
0.048742887 -0.060077187 -0.014281616 -0.016049191 -0.027102279 0.004944654 -0.04869294 -0.0030168963
0.0018416398 -0.0019029569 0.07379775 0.010695036 -0.06587172 0.079874374 -0.038969096 -0.054791313
0.05880951 0.03550652 0.07596464 0.04193308 -0.030126624 0.038069505 -0.048598256 0.03396178
0.06150505 0.02505473 -0.04758002 0.0063724895 0.08631313 -0.03496066 0.059044126 -0.049423836
0.039700598 0.03944528 0.059229217 -0.02769171 -0.072541445 0.011705106 -0.08850973 -0.039637662
-0.006881452 -0.047056813 0.07307622 0.049567472 -0.021145074 0.06394482 -0.007667248 -0.03885487
0.028931092 0.0576479 -0.03167398 0.04969444 -0.014789903 0.058844402 0.0024300213 0.06193085
0.00061022426 0.050249655 -0.067811884 0.012210144 -0.054416154 -0.0170546 -0.07244089 -0.086163834
0.10959966 -0.076077476 0.000745345 0.06324656 -0.044909913 -0.003055666 -0.045292225 0.020583283
-0.029379403 -0.082144246 -0.04081172 -0.021346238 0.0313387 0.15672652 0.033643667 -0.05924078
0.07594993 0.010190568 -0.02669821 -0.07010549 0.0058020367 -0.06557233 0.0046241945 0.007118742
-0.0020202151 0.10616801 0.045588613 0.027673118 -0.025394497 0.060520995 -0.0018522339 -0.079139546
-0.0026371041 -0.036566183 -0.047118474 -0.063921764 -0.003385716 -0.017195182 0.05439647 0.0010624375
-0.018218333 -0.04975907 -0.0071656373 0.051925123 0.013471766 0.07277117 0.04007577 0.006728964
-0.018163454 -0.076289125 -0.035680484 0.041049756 0.0005799421 0.00094548066 0.07259304 -0.0973462
0.0058603804 0.047215465 0.0826489 -0.011608505 0.02088863 -0.07544513 0.0108635705 0.034397263
-0.043602426 -0.045341346 0.041943654 -0.044811923 -0.04363429 -0.058463123 0.072639264 0.023591708
-0.05343938 0.07806916 0.049270593 -0.04498911 -0.037006747 0.034478303 0.06030737 0.026371516
0.020034628 0.05369205 -0.059904773 -0.056968722 -0.011689654 -0.01952869 0.04803795 0.06227946
-0.023206431 -0.074163355 -0.005799834 -4.831932e-05 -0.059213556 0.05085759 -0.08536599 -0.05362064
0.027249703 0.057056047 0.02612394 0.071694404 0.018264294 0.03453194 0.0013010926 -0.03561672
-0.031582125 -0.07959658 0.012215637 0.015643932 -0.03606768 0.058350295 -0.027083386 0.005170353
-0.02232792 0.058217872 -0.079008415 0.040150087 0.08271668 -0.10447682 0.029630622 -0.054192223
-0.08932225 -0.030350441 -0.012921742 -0.07114797 0.037026323 -0.08294817 0.07091292 -0.019814314
-0.03243864 -0.07442118 0.056867186 0.007583164 0.004836421 0.056827534 -0.039467 0.098237015
0.010132105 0.073008746 -0.015703252 -0.039013047 -0.00097539107 -0.029357523 0.07155919 0.089866824
0.027225297 0.09329025 -0.10672228 0.01508814 0.036724105 0.0036110932 -0.09272834 0.056762595
0.029290019 -0.038743712 0.04919221 -0.041764647 -0.0001665995 0.00049569213 -0.0044579585 0.058829516
-0.05545098 -0.0466644 0.06318134 0.03951227 -0.06248794 0.063396886 -0.08441207 0.061438046
00000000: d289 5abe 5e6b a3bb f0bf 2d3d 38ed fa3d
00000010: e679 2f3c 1d2e aabd 075a a13d f960 a9bd
00000020: d31d 1f3d d672 4fbd ed81 713d de1c 993b
00000030: e4e3 d43c c2c5 f03d a617 b73c e9c2 d83d
00000040: 92e3 e8bb 9c1e 52bd b727 3bbd ca64 14bd
00000050: d0d2 1cbd 401a 143d 5ddd 91bc fe5f fb3c
00000060: 9fa6 473d 7f13 76bd 70fd 69bc 9879 83bc
00000070: 9905 debc c406 a23b 4072 47bd 1fb7 45bb
00000080: 2d63 f13a a36c f9ba 4623 973d 3b3a 2f3c
00000090: c1e7 86bd 2d95 a33d 0f9e 1fbd db6c 60bd
000000a0: 3ee2 703d 496f 113d 5993 9b3d 05c2 2b3d
000000b0: 1ccc f6bc c5ee 1b3d f70e 47bd 821b 0b3d
000000c0: b8ec 7b3d 943f cd3c 44e3 42bd 51d0 d03b
000000d0: f0c4 b03d e932 0fbd 41d8 713d a670 4abd
000000e0: 189d 223d 6091 213d 569a 723d bad9 e2bc
000000f0: 9c90 94bd c6c6 3f3c 9744 b5bd 1a5b 22bd
00000100: ce7d e1bb a5be 40bd fca8 953d 4307 4b3d
00000110: 6f38 adbc 80f5 823d 8a3d fbbb 4926 1fbd
00000120: e600 ed3c 3420 6c3d 93bc 01bd 668c 4b3d
00000130: 5951 72bc d406 713d fe40 1f3b 34ab 7d3d
00000140: 75f7 1f3a 95d2 4d3d f5e0 8abd 0e0d 483c
00000150: 79e3 5ebd 17b6 8bbc e45b 94bd aa76 b0bd
00000160: c975 e03d 82ce 9bbd 4263 433a 6a87 813d
00000170: 75f3 37bd 9241 48bb 5784 39bd 469e a83c
00000180: 13ad f0bc 3e3b a8bd 312a 27bd 4ede aebc
00000190: 025d 003d eb7c 203e f1cd 093d 76a6 72bd
000001a0: a38b 9b3d 57f6 263c 34b6 dabc 7893 8fbd
000001b0: 031f be3b c94a 86bd 8e86 973b 5644 e93b
000001c0: 9665 04bb 9d6e d93d 20bb 3a3d bcb2 e23c
000001d0: 1f08 d0bc dde4 773d a8c6 f2ba ea13 a2bd
000001e0: 44d3 2cbb 6cc6 15bd 4dff 40bd 6ae9 82bd
000001f0: e3e2 5dbb e9dc 8cbc d5ce 5e3d 7d41 8b3a
00000200: 9d3e 95bc 2bd0 4bbd b9cd eabb 70af 543d
00000210: afb8 5c3c 0d09 953d 7e26 243d a47e dc3b
00000220: 86cb 94bc 793d 9cbd b325 12bd ca23 283d
00000230: 4107 183a 22da 773a a9ab 943d 725d c7bd
00000240: 6f08 c03b 0165 413d d443 a93d 9931 3ebc
00000250: a21e ab3c fa82 9abd 1efd 313c 25e4 0c3d
00000260: 7598 32bd d9b7 39bd 1ccd 2b3d b58c 37bd
00000270: dfb9 32bd 0777 6fbd e5c3 943d 6643 c13c
00000280: 40e3 5abd b9e2 9f3d f6cf 493d 8046 38bd
00000290: 6394 17bd 1f39 0d3d dc04 773d 1409 d83c
000002a0: a91f a43c 32ec 5b3d b55e 75bd 0958 69bd
000002b0: f685 3fbc a2fa 9fbc 71c3 443d bf18 7f3d
000002c0: 6a1b bebc f5e2 97bd 890c bebb 7aaa 4ab8
000002d0: ea89 72bd 0c50 503d 5dd4 aebd 51a1 5bbd
000002e0: c53a df3c 9ab3 693d df01 d63c 84d4 923d
000002f0: 009f 953c 5d71 0d3d 6c89 aa3a d6e2 11bd
00000300: 425c 01bd 8803 a3bd 1824 483c b427 803c
00000310: b4bb 13bd b800 6f3d fadd ddbc 116c a93b
00000320: 0be9 b6bc dd75 6e3d 2acf a1bd 6b74 243d
00000330: 5d67 a93d f1f7 d5bd ebbb f23c aaf8 5dbd
00000340: 95ee b6bd 7da1 f8bc b7b5 53bc 07b6 91bd
00000350: eaa8 173d bbe0 a9bd cb3a 913d a151 a2bc
00000360: 61de 04bd 226a 98bd 91ed 683d 317c f83b
00000370: d77a 9e3b fdc3 683d 26a8 21bd 7d30 c93d
00000380: 2101 263c 9c85 953d 1ba4 80bc 25cc 1fbd
00000390: 63b1 7fba 307f f0bc a08d 923d 190c b83d
000003a0: 9607 df3c f50e bf3d 3691 dabd 3f34 773c
000003b0: 046c 163d 17a8 6c3b 5be8 bdbd e57f 683d
000003c0: 9ff1 ef3c bab1 1ebd c57d 493d 6811 2bbd
000003d0: 36b1 2eb9 56f1 013a 1114 92bb 38f7 703d
000003e0: 9120 63bd 2b23 3fbd 3865 813d 9ed7 213d
000003f0: 5bf3 7fbd 3ad6 813d 3ce0 acbd 76a6 7b3d

bias_ih_l0 f4 [128]
0.1302735 -0.21047463 0.059472553 -0.01313037 0.2094887 -0.06439542 0.19193651 0.2073802
-0.18671302 -0.04051792 0.051551953 -0.015053412 0.0041897907 0.02649212 -0.043855935 -0.14492232
-0.12964499 0.162456 0.015218114 0.0111165345 0.11427223 0.18081598 0.057589144 -0.08636372
0.013738365 -0.035761435 -0.032948375 -0.12567472 0.038435448 -0.061404757 0.019665498 -0.02220789
-0.060199246 0.09979258 0.077440344 -0.013415022 0.020474276 -0.029193705 -0.06467627 -0.08517603
-0.17707603 -0.07868429 0.2283845 -0.017334837 -0.022783084 -0.04942138 -0.024876565 0.110170394
-0.033752047 0.110705905 0.027981564 0.0051441817 0.105284214 0.0656202 -0.13822567 -0.14084755
-0.08583472 0.015893549 0.13868716 0.094535165 -0.004748788 0.09802434 0.021209735 -0.06736963
-0.04548078 0.0062133335 -0.08854987 -0.1737429 -0.106286995 0.01976781 -0.004160644 0.029752184
0.007160753 0.009840898 -0.04334281 -0.07572451 -0.12836526 -0.02858881 0.023281954 -0.057993725
-0.00946388 0.02321252 0.019019412 -0.0725222 0.16670674 0.12902854 -0.14717321 -0.23618801
-0.0721236 -0.13615893 -0.12411922 -0.11522177 0.21804646 0.023321005 -0.0665984 -0.050189223
-0.20116255 -0.12126963 0.16670655 0.048528496 0.104896024 0.051082674 0.058557913 0.09664224
0.18546097 -0.17358783 -0.03544614 -0.0032451132 0.102333635 0.122513466 0.13958246 0.010890425
-0.22130346 -0.061581254 0.021622825 0.03436851 -0.025408098 -0.068397924 -0.18045244 -0.14404853
0.07561505 0.14806105 -0.14237145 -0.003890291 0.18973525 0.115474574 -0.09100746 0.028886233
00000000: 6b66 053e a986 57be 7e99 733d c320 57bc
00000010: 3584 563e bfe1 83bd 018b 443e 7a5b 543e
00000020: b331 3fbe 1ef6 25bd 2428 533d 96a2 76bc
00000030: 834a 893b 0106 d93c 48a2 33bd 8466 14be
00000040: a8c1 04be de5a 263e 6555 793c 2022 363c
00000050: 8f07 ea3d d327 393e 98e2 6b3d 76df b0bd
00000060: e116 613c 957a 12bd e0f4 06bd e0b0 00be
00000070: 7d6e 1d3d 8e83 7bbd 8a19 a13c 52ed b5bc
00000080: 7c93 76bd 0d60 cc3d 0b99 9e3d aeca 5bbc
00000090: abb9 a73c a327 efbc fe74 84bd c570 aebd
000000a0: 6b53 35be 3b25 a1bd a0dd 693e ca01 8ebc
000000b0: 97a3 babc 136e 4abd f0c9 cbbc 04a1 e13d
000000c0: 963f 0abd c7b9 e23d 9839 e53c 8690 a83b
000000d0: 409f d73d e263 863d 088b 0dbe 573a 10be
000000e0: 1dca afbd 3033 823c 0204 0e3e a79b c13d
000000f0: b99b 9bbb fcc0 c83d 0ac0 ad3c 17f9 89bd
00000100: 0e4a 3abd 3899 cb3b a259 b5bd a9e9 31be
00000110: ffac d9bd 1af0 a13c 0356 88bb daba f33c
00000120: c0a4 ea3b b83b 213c 3b88 31bd 7415 9bbd
00000130: 2f72 03be 1433 eabc ccb9 be3c d48a 6dbd
00000140: 640e 1bbc 2f28 be3c 99ce 9b3c 8586 94bd
00000150: 2cb5 2a3e 0f20 043e 93b4 16be 45db 71be
00000160: 8ab5 93bd 3f6d 0bbe 3832 febd 64f9 ebbd
00000170: 9247 5f3e b10b bf3c be64 88bd 3793 4dbd
00000180: 8efd 4dbe 365c f8bd 1fb5 2a3e d1c5 463d
00000190: bad3 d63d 113c 513d 6cda 6f3d 5eec c53d
000001a0: 7be9 3d3e 02c1 31be f92f 11bd f7ab 54bb
000001b0: 4c94 d13d 57e8 fa3d b4ee 0e3e c16d 323c
000001c0: 609d 62be a03c 7cbd 5a22 b13c ffc5 0c3d
000001d0: a524 d0bc 3614 8cbd 86c8 38be 7581 13be
000001e0: 10dc 9a3d 519d 173e d2c9 11be 41f4 7ebb
000001f0: f549 423e ef7d ec3d 1f62 babd d2a2 ec3c

bias_hh_l0 f4 [128]
0.03382259 -0.20329385 0.07862663 -0.08454571 0.1700968 0.078471676 0.24804509 0.10959038
-0.16225821 -0.10898538 0.13569123 0.059702147 -0.13249847 0.030666724 -0.029003311 -0.17044808
-0.10886269 0.21423358 -0.010863458 -0.06921159 0.06246282 0.10749958 -0.103389904 0.014378716
0.13025899 -0.067370005 -0.060933255 -0.10220488 0.08252697 0.03582286 0.0458861 0.061847806
-0.027932791 0.11703284 0.0183543 0.058454044 -0.09550973 0.013832836 -0.020596277 -0.022740232
-0.08572964 -0.13199538 0.18344396 0.1166673 0.075442396 0.105871335 -0.07002933 0.001464496
-0.049946815 0.06652271 0.012531965 -0.092178255 0.08562921 0.1592085 -0.1377665 -0.13229124
0.0653603 -0.08867033 -0.007760134 0.030242793 -0.1106391 0.033120207 -0.0073093106 -0.05440178
-0.10258263 -0.07374136 -0.06677446 -0.1314066 -0.09103016 0.066424705 -0.039225608 0.051097926
-0.06045938 -0.059116133 0.0052041174 -0.019445376 -0.047500893 0.05742667 0.07298431 -0.068987854
-0.03444483 0.080551684 0.0655474 -0.1226813 0.18696791 0.18175416 -0.12530756 -0.21866418
-0.08906934 -0.15345587 -0.13385242 -0.11440168 0.23630135 0.15425654 0.06931509 -0.12861176
-0.15053615 -0.062154345 0.13214704 0.0025038223 0.08019646 -0.029053666 -0.049077887 0.0063968664
0.16095343 -0.09237767 -0.012235521 0.038103636 0.11493183 0.1629431 0.15685284 -0.07284177
-0.22232395 -0.008366107 0.09209249 -0.07603161 0.018275192 -0.17645563 -0.1861581 0.01884021
-0.04263122 0.21158175 -0.14279748 -0.06910907 0.1302891 0.07643315 -0.05081972 0.062481206
00000000: 8e89 0a3d 432c 50be 0007 a13d 4d26 adbd
00000010: db2d 2e3e c2b5 a03d 88ff 7d3e ec70 e03d
00000020: 0427 26be ba33 dfbd a4f2 0a3e 3d8a 743d
00000030: aead 07be c838 fb3c 5a98 edbc f189 2ebe
00000040: 67f3 debd 0c60 5b3e a5fc 31bc cebe 8dbd
00000050: 04d9 7f3d bd28 dc3d 16be d3bd b594 6b3c
00000060: 9d62 053e 49f9 89bd 2695 79bd cb50 d1bd
00000070: e603 a93d feba 123d 10f3 3b3d 2054 7d3d
00000080: 4fd3 e4bc eaae ef3d c25b 963c 826d 6f3d
00000090: 9b9a c3bd 1fa3 623c 86b9 a8bc b949 babc
000000a0: 0693 afbd cc29 07be bcd8 3b3e 44ef ee3d
000000b0: 8b81 9a3d 12d3 d83d 8a6b 8fbd 55f4 bf3a
000000c0: 0895 4cbd 0f3d 883d df52 4d3c f4c7 bcbd
000000d0: 5e5e af3d 8e07 233e a912 0dbe 5b77 07be
000000e0: 9fdb 853d ca98 b5bd b948 febb bcbf f73c
000000f0: c196 e2bd 0ea9 073d f182 efbb 67d4 5ebd
00000100: d816 d2bd b605 97bd 0cc1 88bd 748f 06be
00000110: 056e babd ad09 883d 08ab 20bd 0f4c 513d
00000120: 41a4 77bd c223 72bd 4d87 aa3b e94b 9fbc
00000130: 4c90 42bd 3a38 6b3d cc78 953d 8149 8dbd
00000140: 0616 0dbd 48f8 a43d b73d 863d 5540 fbbd
00000150: 8474 3f3e c31d 3a3e a050 00be 81e9 5fbe
00000160: fc69 b6bd 8923 1dbe 9c10 09be 6e4b eabd
00000170: fbf8 713e 6df5 1d3e 12f5 8d3d cdb2 03be
00000180: 2626 1abe 8e95 7ebd 8e51 073e 2b17 243b
00000190: 0b3e a43d f401 eebc e505 49bd ce9c d13b
000001a0: fad0 243e 8130 bdbd 7f77 48bc 8f12 1c3d
000001b0: 6161 eb3d 8eda 263e 089e 203e 112e 95bd
000001c0: e4a8 63be ff11 09bc fd9a bc3d 76b6 9bbd
000001d0: dbb5 953c c9b0 34be 3ba0 3ebe c956 9a3c
000001e0: 139e 2ebd e3a8 583e 8139 12be 0e89 8dbd
000001f0: 816a 053e fc88 9c3d 5728 50bd 4bec 7f3d

weight_ih_l1 f4 [128, 128]
-0.08527393 -0.08149012 0.0076077213 0.017082578 0.0031510554 0.047051195 0.06773308 0.04301353
-0.015148838 -0.023963472 -0.047238074 0.07895671 0.08356682 0.22382751 -0.09631913 0.16351958
-0.095650524 -0.013186568 -0.07479143 -0.19016972 -0.0034129622 0.068827584 0.0028314178 -0.053088658
0.027558634 -0.10603949 -0.14565174 0.04231901 0.14360686 0.18521339 0.029695598 0.03445807
-0.106288925 -0.022716533 0.06157149 0.01569865 -0.092138894 0.16732144 -0.02618916 -0.08213246
0.06026314 -0.09726731 0.03058941 -0.04093932 -0.07310874 0.056174006 0.16598874 -0.11943725
-0.03106816 -0.03474268 -0.003147965 0.20629478 0.04776841 0.20540717 -0.12852125 -0.18600291
-0.12681605 0.05132629 0.17802139 0.124121115 -0.030430118 0.053018022 -0.041259028 -0.06350577
0.09014994 -0.089572884 0.06350994 -0.048776887 0.06462336 0.00233238 -0.15014055 0.19373861
-0.0007986075 0.088533595 -0.2033873 0.03312192 -0.07810735 0.015358214 -0.056725312 0.11082561
-0.18826906 -0.03558842 0.11005909 0.030167324 0.03511592 0.038528774 -0.082004346 -0.12258465
0.041332327 0.089467056 -0.08083021 -0.012630766 -0.14560628 0.093782 -0.1268159 0.08130679
0.033560976 0.008712391 0.14624263 -0.04055292 0.12882125 0.06538266 -0.13205057 -0.14502747
0.106602535 -0.101579696 -0.038301926 -0.06785015 0.05572628 -0.03281236 -0.0918681 -0.081303604
0.07706189 0.106398806 0.06057565 -0.05851913 -0.08482144 -0.116251335 -0.08064339 -0.15046768
-0.0485492 -0.029657822 -0.031272054 -0.11744423 -0.034869604 -0.060436234 -0.15143846 -0.019381858
-0.12388738 0.16321075 0.023489 0.02415138 -0.009620862 -0.058195964 -0.0866771 -0.029065618
0.08975626 0.12283862 -0.09469094 -0.04920659 0.11774964 -0.035188764 -0.105206266 0.052265715
0.12943585 -0.04511134 0.057272617 -0.22859615 0.033000555 0.08881882 0.023735935 0.0155901555
-0.18078348 0.011555721 -0.0665885 0.0075129387 -0.014702921 0.045997523 -0.056926824 0.057186488
-0.018178048 -0.15956573 0.037558287 -0.12391235 -0.04624746 0.101364225 0.035080004 -0.06324587
0.12111656 -0.028550994 0.043907855 0.011676209 0.009371607 -0.03162791 0.034938592 -0.0851311
-0.07119861 -0.061552253 -0.03426465 0.008597884 0.046552733 0.08814679 -0.022550829 -0.036775757
-0.080013886 0.009621607 0.016918872 0.050891828 -0.014315733 0.10694452 -0.06349702 -0.047211897
0.060991224 0.020426787 -0.017947758 0.004438266 -0.04413827 0.07549417 -0.008543877 0.08881042
-0.0135441255 0.122191116 -0.070673585 0.049846925 0.010454542 0.1502618 0.16167194 0.099280156
-0.1406305 -0.10443738 -0.07885615 0.07213794 0.059936453 -0.010620193 0.007998967 0.024780283
0.083585165 -0.023880534 0.07472965 0.08401801 -0.06635095 0.02080631 0.00057780044 0.020631354
0.15024176 0.064606786 0.14952272 -0.06643663 -0.029933926 0.07871016 0.0061675813 -0.0869177
0.08397492 -0.03170963 -0.07987766 -0.061824694 -0.0658682 -0.009898634 -0.12168683 0.0055169985
0.14307532 0.059027504 0.10555935 -0.15874489 0.060486082 -0.017749626 0.10363394 -0.03900125
0.017214186 -0.17227209 -0.08319812 0.021480637 -0.06798955 -0.09443726 0.022891423 0.10115117
00000000: 19a4 aebd 4be4 a6bd 314a f93b c3f0 8b3c
00000010: f081 4e3b c1b8 403d a4b7 8a3d f52e 303d
00000020: d532 78bc 0b4f c4bc b67c 41bd 0eb4 a13d
00000030: 1525 ab3d 0a33 653e f742 c5bd ad71 273e
00000040: 6ce4 c3bd 7a0c 58bc 402c 99bd dabb 42be
00000050: 01ac 5fbb 7af5 8c3d 4f8f 393b 7e73 59bd
00000060: a5c2 e13c 3b2b d9bd bb25 15be b356 2d3d
00000070: ad0d 133e 94a8 3d3e 2f44 f33c e823 0d3d
00000080: 02ae d9bd 0618 babc 6332 7c3d 759a 803c
00000090: 51b3 bcbd 5056 2b3e a68a d6bc 1035 a8bd
000000a0: 7bd6 763d 1534 c7bd a496 fa3c fdaf 27bd
000000b0: 09ba 95bd b716 663d f4f8 293e 849b f4bd
000000c0: a782 febc 574e 0ebd 174e 4ebb f03e 533e
000000d0: cfa8 433d 4256 523e 139b 03be 8c77 3ebe
000000e0: 11dc 01be 843b 523d 3d4b 363e 3633 fe3d
000000f0: 9548 f9bc 6d29 593d 3aff 28bd 500f 82bd
00000100: 88a0 b83d fd71 b7bd 8011 823d 46ca 47bd
00000110: 4159 843d d8da 183b 72be 19be 6a63 463e
00000120: a459 51ba 1a51 b53d c344 50be daaa 073d
00000130: bff6 9fbd 05a1 7b3c cd58 68bd 8af8 e23d
00000140: 9bc9 40be 2ac5 11bd a966 e13d 7721 f73c
00000150: b6d5 0f3d 59d0 1d3d e5f1 a7bd a90d fbbd
00000160: 164c 293d 813a b73d 4f8a a5bd 46f1 4ebc
00000170: d019 15be c710 c03d 07dc 01be 2d84 a63d
00000180: 3c77 093d 6bbe 0e3c a1c0 153e d21a 26bd
00000190: b8e9 033e 58e7 853d 4438 07be 1582 14be
000001a0: 6e52 da3d 0409 d0bd 7be2 1cbd 05f5 8abd
000001b0: 3d41 643d 4166 06bd 5825 bcbd 8182 a6bd
000001c0: a0d2 9d3d 9ee7 d93d 2c1e 783d c1b1 6fbd
000001d0: ddb6 adbd 2e15 eebd 5d28 a5bd 3314 1abe
000001e0: 87db 46bd f6f4 f2bc 2017 00bd 9a86 f0bd
000001f0: 6ed3 0ebd fc8b 77bd af12 1bbe b4c6 9ebc
00000200: abb8 fdbd b820 273e 016c c03c 1dd9 c53c
00000210: d2a0 1dbc e45e 6ebd c383 b1bd 051b eebc
00000220: 21d2 b73d d092 fb3d 53ed c1bd d98c 49bd
00000230: b926 f13d 1822 10bd 6276 d7bd 9314 563d
00000240: d58a 043e abc6 38bd b196 6a3d 1c15 6abe
00000250: 972b 073d a4e6 b53d dd71 c23c da6d 7f3c
00000260: 4e1f 39be 3554 3d3c 8d5f 88bd 192f f63b
00000270: 85e4 70bc e667 3c3d 1a2c 69bd 613c 6a3d
00000280: 21ea 94bc 3365 23be b8d6 193d c2c5 fdbd
00000290: fa6d 3dbd 0c98 cf3d 0db0 0f3d 0d87 81bd
000002a0: f60b f83d c6e3 e9bc b9d8 333d 924d 3f3c
000002b0: 5e8b 193c 448c 01bd c51b 0f3d 3759 aebd
000002c0: 94d0 91bd 371e 7cbd 1759 0cbd 24de 0c3c
000002d0: 14ae 3e3d 4e86 b43d 84bc b8bc 2da2 16bd
000002e0: 52de a3bd f2a3 1d3c 7299 8a3c f373 503d
000002f0: 898c 6abc ba05 db3d ba0a 82bd 4361 41bd
00000300: efd1 793d 1456 a73c 2d07 93bc e06e 913b
00000310: 55ca 34bd b09c 9a3d 9efb 0bbc 3de2 b53d
00000320: 2ee8 5dbc 563f fa3d 50bd 90bd 4a2c 4c3d
00000330: 8749 2b3c 3bde 193e 548d 253e 6553 cb3d
00000340: 7101 10be 44e3 d5bd 557f a1bd 0ebd 933d
00000350: ed7f 753d 5100 2ebc 190e 033c 0500 cb3c
00000360: b32e ab3d 1ca1 c3bc dc0b 993d a211 ac3d
00000370: 02e3 87bd ff71 aa3c 8877 173a 1603 a93c
00000380: fad8 193e 9050 843d 7c1c 193e ee0f 88bd
00000390: fe37 f5bc cb32 a13d 6c19 ca3b e801 b2bd
000003a0: 0bfb ab3d f5e1 01bd e696 a3bd e43b 7dbd
000003b0: e8e5 86bd e12d 22bc f236 f9bd f0c7 b43b
000003c0: 5682 123e d3c6 713d 802f d83d 058e 22be
000003d0: 41c0 773d aa67 91bc 083e d43d c6bf 1fbd
000003e0: c404 8d3c 1868 30be c763 aabd 29f8 af3c
000003f0: 1b3e 8bbd 5268 c1bd cb86 bb3c 5828 cf3d

weight_hh_l1 f4 [128, 128]
-0.107616164 0.022519516 -0.014116971 0.10510886 0.065971315 -0.018114246 0.025844589 -0.039465573
0.06462568 -0.10391677 -0.11728926 0.016031066 0.06582361 0.060931254 0.03236169 0.05002224
-0.0131029 -0.05623687 -0.069493614 -0.008060432 0.08042801 -0.059344206 0.013882 0.035563935
-0.031904165 -0.089168556 -0.09752665 -0.06597866 0.06947967 -0.047031265 0.008665949 0.06356136
-0.019505946 -0.07980827 -0.066415556 -0.06450117 0.058712516 0.037758905 -0.050115727 0.09465653
0.010158506 0.10484848 0.011800117 0.050817035 0.072562076 -0.039802697 -0.05029755 -0.080742784
-0.17784369 -0.037380297 -0.0049535665 -0.019378586 -0.035792276 0.041428544 -0.055897314 0.013096028
0.07046816 0.02668041 -0.03401559 0.07183805 0.024969991 0.0068810587 0.041231714 0.078249864
-0.03725554 -0.033938892 0.019812033 0.082381696 -0.041456874 -0.029925471 -0.005673554 0.068297386
-0.00512469 0.0089231385 -0.061272703 0.014056917 0.010419031 -0.0760775 0.0068029733 0.016882982
0.062334843 -0.015784135 -0.012442889 0.066975705 -0.03413229 0.053882964 0.039131388 0.01685894
-0.010309103 -0.0075332406 -0.03507076 -0.027724462 0.012588281 0.15435453 -0.08000869 -0.06650127
0.020832011 -0.038483292 0.085307755 0.049545072 0.05864421 0.056339696 0.01175442 -0.06456505
-0.14343463 -0.048260517 0.083121836 0.044646624 -0.07316882 -0.015269952 -0.030269688 -0.09121301
-0.12583943 0.014504793 0.05919769 -0.06801979 0.033317015 -0.036448803 0.01457667 -0.07205831
-0.06553259 -0.048227686 -0.049418885 -0.0057953233 -0.009107444 -0.008914317 0.0054084333 0.018989433
-0.072658174 -0.27778384 0.042901695 -0.075019285 0.069465555 0.03306055 0.059853226 0.05937944
-0.11180758 0.01869284 -0.00084615056 -0.014975261 0.036382087 -0.028225861 -0.084157296 0.013330308
-0.05078929 0.024621373 -0.055842787 -0.06641626 0.09927168 -0.08659845 0.039035946 0.023310723
-0.03295277 -0.013109634 -0.011699018 0.029556703 -0.046795286 0.029890865 0.051691156 0.082448296
-0.011988461 0.046377044 -0.0216214 -0.07383981 -0.040178876 -0.018158833 0.0038382271 0.033228956
-0.112793155 -0.0449634 -0.050517645 0.014646664 0.05026679 -0.012996695 -0.019688541 0.012211889
-0.13466524 0.03911468 0.012160981 0.060876753 0.031473096 0.12932897 0.07466072 -0.08466593
-0.075811446 0.069856316 -0.109881215 0.074335456 -0.0019894545 0.018665388 -0.03860539 -0.042733815
0.0108121745 0.05882708 -0.07197696 -0.015247343 -0.06492912 -0.026610428 -0.06847642 0.043211766
-0.049262356 -0.06292057 -0.035431348 0.020184344 0.09434477 -0.022589395 -0.027297636 0.038530134
0.036326423 -0.043691926 0.05727389 0.04884216 0.059856787 -0.03709047 -0.07186737 0.07880608
-0.014022998 0.016182108 -3.9964478e-05 -0.008963312 0.010931253 0.01171096 0.055306632 -0.058912236
-0.0054353387 -0.004340261 -0.09315669 0.030735612 0.0001975151 0.08212245 -0.060856286 0.0057590157
0.007818135 0.04950734 0.028090468 0.016079104 -0.047342185 -0.12216733 -0.08290751 0.06553196
0.12715481 0.048109133 0.01781453 0.034497127 0.029586988 -0.04976274 0.08151492 -0.009920832
-0.059021477 -0.028654933 -0.07678989 0.08919893 0.06168616 -0.07678986 0.013884514 -0.00882582
00000000: dd65 dcbd d97a b83c de4a 67bc 5043 d73d
00000010: f81b 873d 5464 94bc 08b8 d33c a7a6 21bd
00000020: 785a 843d 51d2 d4bd 5a35 f0bd 9553 833c
00000030: 87ce 863d 0d93 793d b18d 043d 1fe4 4c3d
00000040: 8cad 56bc a258 66bd ab52 8ebd e70f 04bc
00000050: 71b7 a43d e912 73bd 5471 633c 7dab 113d
00000060: f1ad 02bd 019e b6bd 0dbc c7bd d21f 87bd
00000070: 5b4b 8e3d dba3 40bd a0fb 0d3c 752c 823d
00000080: efca 9fbc 8572 a3bd e104 88bd 3019 84bd
00000090: 897c 703d 15a9 1a3d 2646 4dbd 48db c13d
000000a0: dd6f 263c cdba d63d 4755 413c 8625 503d
000000b0: 6d9b 943d 2708 23bd ce04 4ebd 795c a5bd
000000c0: a81c 36be 151c 19bd 8751 a2bb d7bf 9ebc
000000d0: ec9a 12bd fab0 293d 95f4 64bd b990 563c
000000e0: 9c51 903d e090 da3c ee53 0bbd d41f 933d
000000f0: de8d cc3c 817a e13b 96e2 283d 7741 a03d
00000100: 4499 18bd 8203 0bbd d84c a23c bcb7 a83d
00000110: afce 29bd 4326 f5bc 38e9 b9bb 80df 8b3d
00000120: 04ed a7bb 5b32 123c 16f9 7abd fc4e 663c
00000130: 95b4 2a3c 85ce 9bbd 7aeb de3b 2e4e 8a3c
00000140: d252 7f3d bb4d 81bc 42dd 4bbc 8f2a 893d
00000150: 4dce 0bbd 62b4 5c3d 3c48 203d c21b 8a3c
00000160: 83e7 28bc 67d9 f6bb 5ba6 0fbd 691e e3bc
00000170: 143f 4e3c 1d0f 1e3e 99db a3bd d131 88bd
00000180: e5a7 aa3c a8a0 1dbd d5b5 ae3d c6ef 4a3d
00000190: e934 703d 74c4 663d 9c95 403c ae3a 84bd
000001a0: 87e0 12be d2ac 45bd c83b aa3d 61df 363d
000001b0: 89d9 95bd d22e 7abc 23f8 f7bc e3cd babd
000001c0: 0ddc 00be 83a5 6d3c 4779 723d f64d 8bbd
000001d0: 6c77 083d 574b 15bd fcd2 6e3c 4f93 93bd
000001e0: f335 86bd 658a 45bd 756b 4abd b2e6 bdbb
000001f0: 6437 15bc 5b0d 12bc 3a39 b13b ba8f 9b3c
00000200: cfcd 94bd af39 8ebe b0b9 2f3d b6a3 99bd
00000210: f543 8e3d 806a 073d a828 753d db37 733d
00000220: 5ffb e4bd ba21 993c 34d0 5dba cc5a 75bc
00000230: 6205 153d ec39 e7bc a95a acbd 5d67 5a3c
00000240: 6e08 50bd c3b2 c93c 68bb 64bd 4005 88bd
00000250: f34e cb3d 875a b1bd 28e4 1f3d 21f6 be3c
00000260: 7cf9 06bd cac9 56bc 3dad 3fbc e620 f23c
00000270: 6aac 3fbd b0dd f43c 1bba 533d a7da a83d
00000280: 406b 44bc dbf5 3d3d 5d1f b1bc 5439 97bd
00000290: 9b92 24bd d5c1 94bc c48a 7b3b 161b 083d
000002a0: 1900 e7bd 8b2b 38bd 97eb 4ebd 90f8 6f3c
000002b0: 8de4 4d3d 17f0 54bc dd49 a1bc 6014 483c
000002c0: afe5 09be b736 203d da3e 473c e759 793d
000002d0: efe9 003d d06e 043e b8e7 983d 5565 adbd
000002e0: 0843 9bbd d410 8f3d 6709 e1bd 303d 983d
000002f0: 8261 02bb 28e8 983c af20 1ebd a709 2fbd
00000300: 8c25 313c aaf4 703d a868 93bd fecf 79bc
00000310: 8ff9 84bd 1dfe d9bc 5e3d 8cbd d2fe 303d
00000320: 53c7 49bd 80dc 80bd 7620 11bd a359 a53c
00000330: d537 c13d 650d b9bc 4b9f dfbc c6d1 1d3d
00000340: 04cb 143d 4ef6 32bd 0798 6a3d b70e 483d
00000350: 642c 753d 2dec 17bd 332f 93bd 1565 a13d
00000360: b7c0 65bc 5790 843c 889f 27b8 dbda 12bc
00000370: 0019 333c 54df 3f3c 3589 623d f54d 71bd
00000380: ed1a b2bb c038 8ebb efc8 bebd 40c9 fb3c
00000390: 0e1c 4f39 d12f a83d 7144 79bd 20b6 bc3b
000003a0: a317 003c 35c8 4a3d fb1d e63c 53b8 833c
000003b0: e1e9 41bd dd32 fabd 6acb a9bd 9f35 863d
000003c0: df34 023e 150e 453d c7ef 913c dc4c 0d3d
000003d0: 6960 f23c 04d4 4bbd 4bf1 a63d fc8a 22bc
000003e0: 81c0 71bd c0bd eabc 0544 9dbd eead b63d
000003f0: a0aa 7c3d 0144 9dbd df7b 633c 2c9a 10bc

bias_ih_l1 f4 [128]
-0.07260591 -0.012170346 0.023504108 -0.090772584 0.10825961 0.13321754 0.045233794 0.11343295
-0.06971336 0.025563488 0.118378334 0.047615185 -0.065216415 0.0062619685 -0.047966506 0.029148743
0.024338966 0.06818066 -0.0039187805 0.08936544 0.12820834 -0.058661804 -0.037648577 -0.1694587
0.08739625 -0.06001499 0.07284761 0.01859523 0.021671211 0.012181925 0.09322473 0.03725588
-0.06933115 0.061376877 0.11501393 0.026946044 0.030632555 0.03608207 -0.013792876 0.05697633
0.030131755 0.023472112 -0.072739825 -0.012177282 0.05270528 0.12316779 -0.04642531 -0.14676316
0.124323756 0.053211413 -0.051963966 0.059441585 -0.096111655 -0.08223061 -0.00891956 0.11349633
0.06913288 0.033390556 0.1271945 0.018967338 -0.0469433 0.06591909 -0.08106816 -0.11167627
0.025838643 0.11730642 0.027522115 -0.08008861 0.074463084 0.10674648 -0.06722628 -0.033540748
0.042661402 -0.08094663 -0.07952028 0.093023136 -0.08149125 -0.094206624 -0.03051773 0.042102054
0.07801049 -0.00094232697 0.041290678 0.13239501 -0.013316123 -0.0547658 0.06110377 0.11640008
-0.09512414 0.11164195 0.01242342 -0.066520095 -0.11724836 0.09184841 -0.074649274 0.076307945
-0.051575087 -0.18561791 0.13394946 0.1048153 -0.022077186 -0.043676715 -0.016137512 -0.04029038
-0.15284221 -0.019912934 0.11798595 0.005017699 0.05678791 0.043351926 -0.021757767 0.063399106
-0.104639016 -0.035325784 0.036039207 -0.051290814 -0.059402987 -0.028850552 -0.08433621 0.039276354
0.03825868 -0.13985166 0.14223984 -0.008176319 0.006029553 0.09175722 0.03233005 0.076682836
00000000: 68b2 94bd 2266 47bc b08b c03c fae6 b9bd
00000010: 37b7 dd3d 2e6a 083e 1247 393d 894f e83d
00000020: e1c5 8ebd 856a d13c 5770 f23d 2408 433d
00000030: 2f90 85bd 3331 cd3b 8778 44bd 58c9 ee3c
00000040: 8362 c73c 4da2 8b3d 1d69 80bb 3a05 b73d
00000050: 0c49 033e 5c47 70bd 6535 1abd 9586 2dbe
00000060: cefc b23d 47d2 75bd 2131 953d 0655 983c
00000070: d387 b13c b296 473c 9bec be3d 9f99 183d
00000080: 7dfd 8dbd 5266 7b3d 6c8c eb3d f3bd dc3c
00000090: 20f1 fa3c cbca 133d 84fb 61bc 0360 693d
000000a0: dfd6 f63c 9648 c03c 9ef8 94bd 3983 47bc
000000b0: 7ee1 573d 653f fc3d 7728 3ebd 1549 16be
000000c0: 749d fe3d 36f4 593d 2bd8 54bd 0579 733d
000000d0: 30d6 c4bd 8668 a8bd 5923 12bc c470 e83d
000000e0: 8a95 8d3d 89c4 083d 463f 023e 6461 9b3c
000000f0: 9e47 40bd 9600 873d 1007 a6bd 87b6 e4bd
00000100: 90ab d33c 593e f03d 0f76 e13c 7f05 a4bd
00000110: 1a80 983d e69d da3d efad 89bd 0662 09bd
00000120: b9bd 2e3d 59c7 a5bd 87db a2bd ea82 be3d
00000130: e2e4 a6bd 67ef c0bd 5200 fabc 3473 2c3d
00000140: f7c3 9f3d 7e06 77ba 6a20 293d 8f92 073e
00000150: de2b 5abc 1a52 60bd f247 7a3d 2a63 ee3d
00000160: 72d0 c2bd 89a4 e43d 9a8b 4b3c b03b 88bd
00000170: e81f f0bd 051b bc3d b8e1 98bd 5747 9c3d
00000180: 6640 53bd 9f12 3ebe 0c2a 093e 67a9 d63d
00000190: 37db b4bc 5be6 32bd d132 84bc 8707 25bd
000001a0: ab82 1cbe 7320 a3bc 9ea2 f13d 836b a43b
000001b0: 719a 683d ca91 313d 583d b2bc 64d7 813d
000001c0: fb4c d6bd c5b1 10bd d99d 133d 5116 52bd
000001d0: 8c50 73bd fe57 ecbc 76b8 acbd 3ee0 203d
000001e0: 22b5 1c3d 4635 0fbe 52a7 113e f8f5 05bc
000001f0: 8e93 c53b 36eb bb3d 846c 043d e40b 9d3d

bias_hh_l1 f4 [128]
-0.12992933 -0.016130453 0.058730792 -0.054092627 0.10408971 0.16101289 0.058694202 0.114257716
-0.044621494 0.00544783 0.005433766 0.0017275681 -0.0350569 -0.026852168 -0.081772804 -0.04700205
0.059279907 0.03190568 0.04880208 0.07357388 0.09389317 -0.11902139 0.03510188 -0.1537427
0.12203612 -0.0068618255 -0.056447282 -0.025743892 0.025235213 -0.005348532 0.123309426 0.035666656
-0.0742634 0.08444978 0.15194273 0.08547663 0.019143706 0.068813615 0.09361463 -0.02761104
-0.00038842607 -0.06251571 0.0947832 -0.058007818 0.12174895 0.124416694 0.00038812403 -0.12351747
0.106341876 0.033886004 -0.06716138 0.106363475 -0.1368286 -0.025556615 0.056084905 -0.025052793
0.044633377 -0.05987883 0.05113 0.12298449 -0.023342604 0.102985494 0.046828203 -0.13796802
-0.12015687 0.14664465 -0.08959871 0.05571927 -0.062940076 0.13979895 -0.009673093 -0.09661995
-0.09265521 -0.06926973 -0.10008833 0.024876788 0.023610163 -0.01598986 0.08009287 0.056809563
0.16067454 0.0020351056 0.037291344 0.09727726 -0.0739322 0.008009549 0.07077866 -0.019544296
0.034115203 0.07744061 0.08566272 -0.14466178 -0.076647066 0.023314985 -0.0883153 0.0064145415
-0.015693018 -0.11079185 0.09913975 0.024684079 0.009280487 -0.10917882 -0.103429 0.014093003
-0.14417034 -0.049336873 0.1695069 0.026704002 -0.03214631 -0.024427073 -0.07661507 0.06513279
-0.055874303 -0.10178829 0.09145192 0.062896535 0.08372934 0.057579376 0.037184883 0.029165624
0.01191036 -0.10083267 0.20807299 -0.11757316 0.028349055 -0.013746518 -0.025613148 -0.050039392
00000000: 320c 05be 0324 84bc b38f 703d 3b90 5dbd
00000010: fc2c d53d 90e0 243e 5569 703d f3ff e93d
00000020: 07c5 36bd b683 b23b bc0d b23b 916f e23a
00000030: d397 0fbd 14f9 dbbc 8078 a7bd 3985 40bd
00000040: 7dcf 723d 88af 023d b1e4 473d e7ad 963d
00000050: 104b c03d 7dc1 f3bd fdc6 0f3d ba6e 1dbe
00000060: 13ee f93d 2ad9 e0bb 4435 67bd dbe4 d2bc
00000070: 14ba ce3c bd42 afbb a789 fc3d 3317 123d
00000080: 6917 98bd 02f4 ac3d e096 1b3e 5f0e af3d
00000090: 43d3 9c3c 27ee 8c3d 07b9 bf3d 8c30 e2bc
000000a0: aaa5 cbb9 3d08 80bd b21d c23d 9b99 6dbd
000000b0: 8357 f93d 2ece fe3d 207d cb39 baf6 fcbd
000000c0: c5c9 d93d 0dcc 0a3d e88b 89bd 18d5 d93d
000000d0: cc1c 0cbe 1b5c d1bc 49b9 653d 843b cdbc
000000e0: 7dd1 363d 8143 75bd b16d 513d 4bdf fb3d
000000f0: fd38 bfbc 0fea d23d eece 3f3d 7d47 0dbe
00000100: ce14 f6bd 042a 163e 877f b7bd e439 643d
00000110: bae6 80bd 7527 0f3e e57b 1ebc aee0 c5bd
00000120: 04c2 bdbd 4add 8dbd 1cfb ccbd 68ca cb3c
00000130: 1a6a c13c 2bfd 82bc bb07 a43d 25b1 683d
00000140: de87 243e 685f 053b cfbe 183d 4d39 c73d
00000150: c469 97bd 7c3a 033c 67f4 903d 5c1b a0bc
00000160: 62bc 0b3d 2f99 9e3d f06f af3d 3822 14be
00000170: 23f9 9cbd 11ff be3c a7de b4bd 1331 d23b
00000180: a58e 80bc d6e6 e2bd c809 cb3d 4436 ca3c
00000190: 2f0d 183c 2599 dfbd 95d2 d3bd 57e6 663c
000001a0: 64a1 13be 7615 4abd 3793 2d3e 5ac2 da3c
000001b0: d9ab 03bd 491b c8bc 5de8 9cbd 5764 853d
000001c0: 74dc 64bd 6176 d0bd 254b bb3d e6cf 803d
000001d0: 4a7a ab3d 5ad8 6b3d 2d4f 183d bfec ee3c
000001e0: ac23 433c 5c81 cebd 1611 553e 32ca f0bd
000001f0: 473c e83c 1339 61bc aad2 d1bc 1bf6 4cbd

weight_ih_l2 f4 [128, 128]
0.08267186 0.03187952 0.029125104 -0.115493596 -0.0986144 0.018130563 -0.019975021 -0.089311846
-0.05371943 0.10880679 -0.013716008 -0.017466728 -0.037057705 0.048294738 -0.09343265 -0.13082066
0.041635327 0.012291745 -0.03829476 -0.03987971 -0.060585197 -0.121131405 -0.22589773 0.09149125
0.036629174 0.043022845 0.0072177676 0.120672464 -0.018047191 0.17607681 -0.12850203 0.09885427
0.14507222 0.10068262 -0.103230536 0.0034186859 0.009636705 0.13750133 0.039178174 0.060518704
-0.16768524 -0.036889344 -0.020586157 0.057089865 -0.06121369 0.08492381 -0.10452415 -0.12098593
0.18127511 -0.0050489763 -0.040677793 0.11867026 0.33282962 -0.12916003 -0.043895792 0.12570953
-0.08903494 -0.001439749 -0.09555011 0.11928833 0.018228943 0.048070904 -0.056430113 -0.06677184
-0.048777 -0.034306888 0.060736902 0.00074059056 0.08305941 0.0070544328 0.073850274 0.010620663
0.15780416 -0.13445126 0.027830383 -0.025761532 0.15955473 -0.061719008 -0.040774427 -0.18462378
-0.21417086 -0.11527435 -0.018881662 -0.038403884 -0.1920767 -0.024861302 0.18351352 -0.01073948
-0.08456833 -0.037702665 -0.18793246 -0.046971664 -0.041784044 -0.16514203 0.08699655 -0.038627096
0.0775234 0.15940939 0.09289519 0.17109342 0.07864787 -0.11277759 0.14927499 0.013984733
-0.07139348 0.0061423406 -0.09487623 -0.06764059 -0.0051950845 -0.0754969 0.16475415 0.022468029
0.13756993 -0.11723196 -0.082935415 0.12995067 0.07569796 -0.08999376 0.092270486 -0.005519074
-0.05040259 0.041762 0.020242829 0.07969997 0.13831325 -0.1841884 0.011446469 0.17855032
0.0257965 -0.026626797 0.047270365 -0.1018567 -0.06601181 -0.10882406 -0.09829366 0.009496935
0.058384463 -0.01680524 -0.015049084 -0.03256188 -0.04165602 0.014171765 -0.07350503 -0.094787434
0.17871174 0.11203875 0.0513294 0.022637846 0.005200371 -0.03628242 -0.12561402 0.060981978
0.09257094 -0.052455306 0.1445396 0.0334893 0.00067517196 0.0723064 -0.16735473 -0.11606944
0.07370698 0.048254147 -0.034531612 -0.054376055 0.02134112 0.1101217 0.10484082 -0.022297421
-0.22583127 -0.033818968 -0.10764891 -0.04757866 -0.0404781 0.06937688 0.017494319 -0.09309855
0.046425276 -0.051163953 -0.1120079 0.04370704 0.2313305 -0.023921669 -0.05008575 0.042495094
0.04790222 -0.012282306 -0.13744684 -0.0029974338 0.12613474 0.07303249 -0.16365987 -0.07594006
0.151713 -0.04569366 -0.015080314 -0.0074250647 0.08372693 0.09537161 0.037622444 -0.09261025
-0.009140792 -0.12134496 0.08449544 0.069794185 0.10860628 -0.015566103 -0.12421304 -0.19688283
-0.19977793 -0.09308875 -0.048334304 0.019066289 -0.08449313 -0.054931715 0.2227552 0.12259152
-0.19026731 -0.08844448 -0.12812448 -0.09547918 0.003381812 -0.09763243 -0.011328054 -0.022552002
0.040179744 0.14026839 0.07367694 0.14691883 0.07153023 -0.08089469 -0.019255744 0.16875567
-0.08250065 0.07470324 0.06750215 -0.025804898 -0.0047111954 -0.10901195 0.18332264 -0.09420261
0.16097432 -0.14824374 -0.032445524 0.115094274 0.052649606 -0.15048768 0.0755302 -0.052285198
-0.120778486 0.15472268 0.12530494 0.021677963 -0.0077078436 -0.18227205 0.079392634 0.16722704
00000000: dd4f a93d 1994 023d c597 ee3c e887 ecbd
00000010: 59f6 c9bd 8c86 943c a8a2 a3bc 21e9 b6bd
00000020: e808 5cbd 18d6 de3d 1bb9 60bc 6216 8fbc
00000030: d2c9 17bd b4d0 453d 9e59 bfbd daf5 05be
00000040: ce89 2a3d 5163 493c f7da 1cbd e858 23bd
00000050: 2f28 78bd be13 f8bd bc51 67be c45f bb3d
00000060: 7908 163d b938 303d 0683 ec3b 2023 f73d
00000070: b4d7 93bc 7b4d 343e 0996 03be 1c74 ca3d
00000080: d08d 143e b132 ce3d 886a d3bd 080c 603b
00000090: 45e3 1d3c 26cd 0c3e 4b79 203d 76e2 773d
000000a0: aeb5 2bbe 4819 17bd 4da4 a8bc 10d7 693d
000000b0: 35bb 7abd 89ec ad3d c210 d6bd 79c7 f7bd
000000c0: 2fa0 393e e271 a5bb c29d 26bd 6509 f33d
000000d0: a568 aa3e 8742 04be 13cc 33bd 00ba 003e
000000e0: f357 b6bd f6b5 bcba c7af c3bd 714d f43d
000000f0: dd54 953c ffe5 443d 4323 67bd adbf 88bd
00000100: 64ca 47bd 6185 0cbd 42c7 783d 3124 423a
00000110: 0d1b aa3d df28 e73b d03e 973d 4a02 2e3c
00000120: 6a97 213e 97ad 09be 8bfc e33c d909 d3bc
00000130: 5162 233e 12cd 7cbd 1603 27bd 040e 3dbe
00000140: 9b4f 5bbe f514 ecbd b7ad 9abc 644d 1dbd
00000150: c1af 44be eea9 cbbc f8ea 3b3e a5f4 2fbc
00000160: 2932 adbd 1c6e 1abd 5e71 40be 5c65 40bd
00000170: bf25 2bbd fe1a 29be 3f2b b23d 7237 1ebd
00000180: 97c4 9e3d 373c 233e d53f be3d 1d33 2f3e
00000190: 2212 a13d f0f7 e6bd 8bdb 183e 3920 653c
000001a0: bf36 92bd b045 c93b 784e c2bd 2687 8abd
000001b0: 873b aabb 1e9e 9abd 50b5 283e df0e b83c
000001c0: 22df 0c3e 4f17 f0bd 0bda a9bd ca11 053e
000001d0: 8807 9b3d a64e b8bd 4ff8 bc3d 59d9 b4bb
000001e0: f272 4ebd a20e 2b3d 4ad4 a53c bd39 a33d
000001f0: fda1 0d3e e29b 3cbe f989 3b3c e5d5 363e
00000200: 2e53 d33c 7120 dabc 929e 413d 3f9a d0bd
00000210: 3331 87bd 26df debd 304e c9bd 0899 1b3c
00000220: 8c24 6f3d 25ab 89bc 6f90 76bc 9b5f 05bd
00000230: 819f 2abd b130 683c ce89 96bd ea1f c2bd
00000240: 3600 373e 9274 e53d c73e 523d 0173 b93c
00000250: e067 aa3b e09c 14bd f6a0 00be 3dc8 793d
00000260: d595 bd3d 60db 56bd 3002 143e 142c 093d
00000270: 06fe 303a 6115 943d 0a5f 2bbe d1b5 edbd
00000280: aff3 963d 24a6 453d 0571 0dbd 6db9 5ebd
00000290: 93d3 ae3c 7c87 e13d c9b6 d63d 15a9 b6bc
000002a0: 5040 67be c285 0abd 0877 dcbd d7e1 42bd
000002b0: 5dcc 25bd 7715 8e3d 3f50 8f3c 74aa bebd
000002c0: 6e28 3e3d 4b91 51bd 6664 e5bd 2706 333d
000002d0: e7e1 6c3e 60f7 c3bc b726 4dbd 560f 2e3d
000002e0: 1e35 443d ba3b 49bc ddbe 0cbe 9870 44bb
000002f0: 7729 013e 0f92 953d 7496 27be 7686 9bbd
00000300: a75a 1b3e 4629 3bbd 6c13 77bc f54d f3bb
00000310: 0679 ab3d 3152 c33d fe19 1a3d 71aa bdbd
00000320: 43c3 15bc b583 f8bd f20b ad3d 41f0 8e3d
00000330: f86c de3d f808 7fbc 6863 febd a79b 49be
00000340: 9692 4cbe 51a5 bebd 31fa 45bd e830 9c3c
00000350: bc0a adbd 1400 61bd f019 643e 4311 fb3d
00000360: 6fd5 42be 6122 b5bd 1033 03be 978a c3bd
00000370: 64a1 5d3b 83f3 c7bd 4d99 39bc fabe b8bc
00000380: 8493 243d 84a2 0f3e efe3 963d e471 163e
00000390: 717e 923d 1dac a5bd 39be 9dbc 49ce 2c3e
000003a0: 1af6 a8bd 03fe 983d 913e 8a3d cb64 d3bc
000003b0: 5f60 9abb a841 dfbd eeb8 3b3e 4ced c0bd
000003c0: 74d6 243e 35cd 17be 99e5 04bd 8cb6 eb3d
000003d0: 1da7 573d 7119 1abe 94af 9a3d 0129 56bd
000003e0: b65a f7bd 9f6f 1e3e f04f 003e fc95 b13c
000003f0: 1492 fcbb 86a5 3abe 9b98 a23d 913d 2b3e
